SoilTest/models/lstm_model.pth (torch, 261097 bytes, 10 tensors)

lstm.weight_ih_l0 f4 [256, 14]
0	0x3dc7f167	0.09762841
1	0xbda3893b	-0.07985159
2	0x3d21a40e	0.039463095
3	0xbd536ba9	-0.051616345
4	0x3dae42fb	0.08508869
5	0x3e94e31b	0.29079518
6	0x3d4e9df0	0.05044359
7	0xbd65a717	-0.056067552
8	0x3c5b086b	0.013368706
9	0x3d5f9f13	0.054595064
10	0xbcaf6a3a	-0.021412957
11	0xbdb65dee	-0.089046344
12	0x3d1ef6f5	0.038809735
13	0xbd5b3e5d	-0.05352627
14	0xbc053035	-0.008129169
15	0xbe1e7d7e	-0.15477559
16	0xbc99512e	-0.018715467
17	0x3ded2387	0.11579042
18	0xbac136ba	-0.0014741041
19	0x38c8dad5	9.577504e-05
20	0x3d73c06f	0.05950969
21	0x3daa6de7	0.083217435
22	0xbdf5ba78	-0.11998457
23	0xbc8982cd	-0.016786003
24	0xbe1f6920	-0.15567446
25	0xbe93c214	-0.28859007
26	0xbf0916e8	-0.5355058
27	0xbc587c26	-0.013213193
28	0x3e297b3b	0.16550915
29	0x3dc6e2fa	0.09711261
30	0x3e20c028	0.15698302
31	0x3e039b57	0.12852226
32	0x3e10b47b	0.14131348
33	0x3e9d9769	0.3077958
34	0x3dbaa98e	0.09114371
35	0x3db42034	0.08795205
36	0xbe0af796	-0.13571009
37	0x3e90c592	0.28275734
38	0x3d36899a	0.04456482
39	0x3af72f51	0.0018858706
40	0xbeaea6cc	-0.3411163
41	0x3de403e7	0.11133557
42	0xbd0b9a0b	-0.034082454
43	0x3caac061	0.020843687
44	0xbe43b2d7	-0.1911119
45	0xbe56ee63	-0.20989375
46	0xbe7ec060	-0.24878073
47	0x3e2e22e5	0.17005499
48	0xbe73fe28	-0.23827422
49	0x3e492d22	0.19646123
50	0xbec37343	-0.38173875
51	0x3e67e206	0.22644815
52	0xbdaa0946	-0.0830255
53	0xbe0e17b9	-0.13876237
54	0xbb20c72e	-0.0024532783
55	0xbe0a1e7a	-0.13488188
56	0xbd344776	-0.044013463
57	0x3b150fb9	0.0022744967
58	0xbd9fb02d	-0.07797275
59	0x3ddcc419	0.1077959
60	0xbd458750	-0.048224747
61	0xbe953227	-0.29139826
62	0xbd683b5d	-0.05669724
63	0xbd37a950	-0.044839203
64	0xbdec56b3	-0.11539974
65	0x3cfad31a	0.03061824
66	0xbe2fc048	-0.17163193
67	0xbda85367	-0.08219033
68	0xbe94ccf5	-0.2906262
69	0x3deb369d	0.11485026
70	0x3de31634	0.11088219
71	0x3e02e3d6	0.12782225
72	0x3e670ae4	0.22562748
73	0x3e741e12	0.23839596
74	0x3e48b2f6	0.19599518
75	0x3f2652a3	0.64969844
76	0x3d95bbbb	0.07311197
77	0x3db68e7f	0.08913898
78	0x3dbfd276	0.09366314
79	0xba1fad92	-0.00060912326
80	0x3d5d5040	0.05403161
81	0x3ddfd5d5	0.10929457
82	0x3ec64c26	0.38729972
83	0x3db8bebd	0.090207554
84	0x3d8ebfd3	0.06970181
85	0x3c7e0324	0.0155036785
86	0x3dc32492	0.095284596
87	0x3e800ffd	0.25012198
88	0x3e3d9d7b	0.18517105
89	0xbd8d1ab8	-0.06889862
90	0x3d651aba	0.05593369
91	0xbcfbecee	-0.030752625
92	0xbda9f36f	-0.082983844
93	0xbcc7e2dc	-0.024400167
94	0x3d8b466f	0.068005435
95	0x3d1b0d90	0.03785473
96	0xbd6ec454	-0.0582927
97	0xbc36e6e4	-0.011163447
98	0x3d36f9b9	0.044671748
99	0x3de20261	0.1103561
100	0x3de96480	0.11396122
101	0xbe884cd2	-0.2662111
102	0x3d32b5a2	0.04363025
103	0x3f091343	0.53545016
104	0xbd05b96f	-0.032647546
105	0x3de47ddb	0.111568175
106	0x3d9d5c68	0.07683641
107	0xbd1be738	-0.038062304
108	0x3d47139e	0.048602693
109	0x3d9736eb	0.07383522
110	0x3e84db4c	0.2594856
111	0xbdc58500	-0.09644508
112	0x3e0ea11c	0.13928646
113	0x3d92b1cf	0.071628205
114	0xbdcc886d	-0.09986959
115	0x3e4594c6	0.19295034
116	0x3e053179	0.13007154
117	0xbe22b669	-0.15889896
118	0x3d1b4f00	0.037917137
119	0xbc9748c7	-0.01846732
120	0xbd9f5d5f	-0.07781481
121	0x3d90dc51	0.07073272
122	0x3b673915	0.0035281826
123	0xba292f10	-0.0006453851
124	0xbca535b2	-0.020167205
125	0x3d503ffd	0.050842274
126	0x3d128ba8	0.035777718
127	0x3e2af0a2	0.16693357
128	0xbe0221a1	-0.12708141
129	0x3e0833af	0.13300966
130	0x3c36e10e	0.011162056
131	0x3f540123	0.82814234
132	0xbd7ab6bb	-0.06120942
133	0xbe5c82e4	-0.21534306
134	0x3c88a17b	0.016678562
135	0xbedcdca7	-0.43137094
136	0xbd634da0	-0.05549395
137	0xbd0dbdcf	-0.034604844
138	0x3e989d7f	0.2980766
139	0x3bf6feaa	0.0075376825
140	0x3c3c8c94	0.011508126
141	0x3d606dca	0.054792203
142	0x3cb38b00	0.021916866
143	0x3e8f0866	0.27936095
144	0xbdc26f52	-0.09493889
145	0x3d6aacfe	0.057293884
146	0x3dc39d02	0.09551431
147	0xbd5a3329	-0.053271446
148	0x3d0745d1	0.033025566
149	0x3d19d2b0	0.037554443
150	0xbe1449f9	-0.14481343
151	0x3db56ed4	0.088590294
152	0x3e4851ec	0.195625
153	0x3dd4737b	0.10373589
154	0x3d9bb74a	0.07603319
155	0x3dbc4b90	0.091941
156	0xbe7c3844	-0.24630839
157	0xbe818325	-0.25295368
158	0x3dcdbfba	0.100463346
159	0xbea432cb	-0.32070002
160	0x3cce49e0	0.02518171
161	0x3e848b15	0.2588736
162	0xbd3da8dc	-0.046303615
163	0x3e88dc7c	0.26730716
164	0xbd30da47	-0.043176915
165	0x3e07ce99	0.13262405
166	0xbedce52e	-0.431436
167	0xbd63bf33	-0.055602264
168	0xbe28b11d	-0.16473813
169	0xbdf5815d	-0.11987565
170	0x3d6536f9	0.05596063
171	0x3ddefc1c	0.1088793
172	0x3cfea34a	0.031083722
173	0x3dcc4259	0.09973592
174	0xbcb2885a	-0.021793533
175	0x3e240a8c	0.16019648
176	0xbd23a8b6	-0.039955817
177	0xbd6e3394	-0.058154657
178	0xbe0ae007	-0.13562022
179	0x3cb2b35f	0.021814046
180	0x3e31438e	0.17310926
181	0xbe2e7c34	-0.17039567
182	0x3ca11cfe	0.019667145
183	0xbd46b508	-0.04851249
184	0xbd1e3f7b	-0.03863476
185	0x3e50a6bf	0.20376109
186	0xbe17dbc6	-0.1482993
187	0xbe9d5503	-0.3072892
188	0xbd55ffe1	-0.05224598
189	0xbc1258f7	-0.008932344
190	0x3b4fc54f	0.0031703298
191	0xbdc77a6b	-0.09740146
192	0x3d0a05c7	0.033696916
193	0xbcac7c91	-0.021055492
194	0xbe0b6178	-0.136114
195	0xbdc4af19	-0.0960371
196	0xbd7fd37b	-0.062457543
197	0x3de9966a	0.11405642
198	0xbd906e51	-0.07052291
199	0x3ea877bb	0.32903847
200	0xbe0fd609	-0.14046492
201	0xbf0b984c	-0.5452926
202	0x3e346464	0.17616421
203	0xbcc0fc44	-0.02355779
204	0x3d457d01	0.048214916
205	0x3e0c271a	0.13686791
206	0xbc4617b2	-0.01209061
207	0x3d3f62d2	0.0467251
208	0xbe80e57a	-0.25175077
209	0xbd5312c5	-0.051531572
210	0x3cd064be	0.025438663
211	0xbd27390a	-0.04082588
212	0x3e70813a	0.23486796
213	0xbde772b4	-0.11301175
214	0x3dec3839	0.11534161
215	0x3f1924d8	0.59821844
216	0x3d55c4c8	0.05218962
217	0xbdf52370	-0.1196965
218	0xbd801f44	-0.062559634
219	0xbcd17258	-0.025567219
220	0x3b6d52e4	0.0036212737
221	0x3d186f85	0.03721573
222	0xbc184bdc	-0.00929543
223	0xbe16e123	-0.1473432
224	0xbc90d4bb	-0.017679563
225	0x3c27796f	0.010221823
226	0xbe064272	-0.13111284
227	0xbd0c0316	-0.03418263
228	0xbeb48d0d	-0.35263863
229	0x3ee5e907	0.44904348
230	0xbe1b410e	-0.15161535
231	0xbcbfa03f	-0.023391841
232	0xbe3189ec	-0.1733777
233	0x3cac663c	0.021044843
234	0xbe24848d	-0.16066189
235	0x3d42cda2	0.047559388
236	0xbe64bf48	-0.22338593
237	0xbd646ea3	-0.055769574
238	0x3e105d0f	0.14097999
239	0x3dd544bc	0.10413501
240	0x3e3e45ab	0.18581264
241	0x3da0f3fa	0.07859035
242	0x3ed48492	0.41507393
243	0x3dd1d6cd	0.10246048
244	0x3d5640d2	0.05230791
245	0xbdb31a3d	-0.08745239
246	0x3d368512	0.0445605
247	0xbe528b3b	-0.20560925
248	0x3e143ba0	0.1447587
249	0xbd80cc27	-0.06288939
250	0xbe12c0e7	-0.14331399
251	0x3e97d02f	0.2965102
252	0xbe08e1e7	-0.13367425
253	0x3b9f9970	0.004870586
254	0xbd15e7ff	-0.0365982
255	0xbd0a0ace	-0.03370171

lstm.weight_hh_l0 f4 [256, 64]
0	0x3d85d03a	0.06533857
1	0x3ded18c4	0.11576989
2	0xbdd31dae	-0.10308395
3	0xbe3a5812	-0.18197659
4	0xbd35ed7e	-0.044415943
5	0xbc935616	-0.017985385
6	0xbd7f1d66	-0.062283896
7	0xbb06f38e	-0.0020591947
8	0x3d8b14e8	0.06791097
9	0xbca48b6e	-0.020086017
10	0xbd48d76e	-0.049033575
11	0x3d84863a	0.06470914
12	0xbe00101e	-0.12506148
13	0xbdb9d992	-0.09074701
14	0xbe06f39d	-0.13178869
15	0xbd6107d2	-0.0549391
16	0xbbecdade	-0.0072282394
17	0x3d1dc9d7	0.038522568
18	0x3dc725d6	0.097240135
19	0xbcb1b572	-0.021692965
20	0x3d5fb956	0.05462011
21	0xbd9cedf0	-0.076625705
22	0xbd3764b2	-0.044773765
23	0xbdb919e8	-0.09038144
24	0x3dfe10d2	0.12405552
25	0xbd75323e	-0.059862368
26	0xbd21ff21	-0.03954995
27	0xbd336c06	-0.04380419
28	0xbe464eb0	-0.19365954
29	0xbdb43b0f	-0.08800327
30	0x3d9a71aa	0.07541211
31	0xbbb9942a	-0.0056634145
32	0x3b9d1e74	0.00479489
33	0xbbb8d11b	-0.0056401617
34	0x3de9bd40	0.1141305
35	0xbcffc9a0	-0.031224072
36	0xbdc68960	-0.09694171
37	0x3dc6de55	0.09710375
38	0x3dd691f8	0.1047706
39	0x3d152b8f	0.036418494
40	0x3e10b571	0.14131714
41	0x3d8ca1c1	0.068667896
42	0x3ab1438a	0.0013524157
43	0xbc281e14	-0.010261077
44	0x3cf13fa3	0.02944929
45	0x3d92713f	0.07150506
46	0xbd8de830	-0.06929052
47	0xbe16cc24	-0.14726311
48	0xbd3d9e4d	-0.046293546
49	0x3d979707	0.07401853
50	0xbdf35de4	-0.118831426
51	0x3d813ee7	0.06310826
52	0xbe014b76	-0.12626442
53	0xbc3d64c3	-0.011559668
54	0xbd4a96d9	-0.049460266
55	0x3db8d124	0.090242654
56	0xbccdfc18	-0.025144622
57	0xbec46e32	-0.38365322
58	0xbdde720f	-0.10861599
59	0xbd27a018	-0.04092416
60	0xba2221d8	-0.00061848527
61	0x3d8ef052	0.06979431
62	0xbd9f030b	-0.07764252
63	0xbe814d27	-0.25254175
64	0xbe07eea6	-0.13274631
65	0xbe077627	-0.13228665
66	0x3e06fa5f	0.13181446
67	0x3d619f12	0.055083342
68	0xbcb587c3	-0.022159463
69	0xbce42ede	-0.02785438
70	0x3bb87123	0.0056287213
71	0x3d6c0d99	0.057630155
72	0xbdfe54fd	-0.12418554
73	0xbdc916d8	-0.0981881
74	0x3da6f60e	0.081524
75	0x3c169f29	0.00919322
76	0xbe2a7bbf	-0.16648768
77	0x3dfb7efb	0.12280079
78	0xbea3f31b	-0.32021412
79	0x3d8cb1ae	0.06869827
80	0x3d8091c5	0.06277803
81	0xbf1a14af	-0.6018781
82	0x3e548920	0.20755434
83	0xbe4ae0e6	-0.19812354
84	0xbc59b20c	-0.013287079
85	0x3eb0010c	0.343758
86	0xbd6b411c	-0.05743514
87	0x3de488fb	0.111589395
88	0xbef41bf8	-0.47677588
89	0x3e83b2ec	0.25722444
90	0xbe05fb3a	-0.13084117
91	0xbdb00557	-0.085947685
92	0xbe2a3cf9	-0.16624822
93	0x3dc2494d	0.09486637
94	0xbd77fe01	-0.06054497
95	0xbde6231d	-0.11237166
96	0x3d4d19fe	0.050073616
97	0x39d5efe2	0.00040805253
98	0xbd3eb98f	-0.04656368
99	0x3e9edc61	0.3102751
100	0x3d99684d	0.07490597
101	0x3e545b01	0.2073784
102	0xbd2569bc	-0.04038404
103	0xbcf67dfe	-0.030089375
104	0xbdda889f	-0.1067059
105	0x3e8f8de5	0.28037944
106	0x3db627f2	0.08894338
107	0xbc6b9a12	-0.014379995
108	0xbde7301d	-0.11288474
109	0x3b2c20a6	0.0026264577
110	0xbc94fda3	-0.01818735
111	0xbe98df2e	-0.29857773
112	0x3c76a5eb	0.015054206
113	0xbe34b70e	-0.17647955
114	0xbd60962c	-0.054830715
115	0xbe1c7362	-0.1527839
116	0xbde5606d	-0.112000324
117	0x3cb8a788	0.022540823
118	0xbda71e1b	-0.08160039
119	0x3da88b31	0.08229674
120	0xbe78c251	-0.24292876
121	0xbe7b29e0	-0.24527693
122	0x3dbca8ba	0.092118695
123	0x3d3684a2	0.044560082
124	0x3e011f2e	0.1260955
125	0xbea049b1	-0.31306222
126	0xbe59119f	-0.21198128
127	0x3e6da124	0.23206002
128	0x3d1ec408	0.03876117
129	0x3de5a39e	0.11212848
130	0xbe577325	-0.21040018
131	0xbddf8931	-0.10914839
132	0xbe50e825	-0.20401056
133	0x3d4c000f	0.049804743
134	0x3df5e643	0.120068096
135	0x3d518b08	0.05115798
136	0x3dfabdc5	0.12243227
137	0x3e9d0d7f	0.3067436
138	0xbe01a86b	-0.12661903
139	0x3d6f7638	0.05846235
140	0xbdfd9ca5	-0.12383393
141	0x3d219d17	0.039456453
142	0x3df322f0	0.11871898
143	0xbad625b4	-0.0016338141
144	0xbe55fd70	-0.2089746
145	0xbd220d2f	-0.039563354
146	0xbc0345e7	-0.0080122715
147	0x3d70231c	0.058627233
148	0x3e14cbf4	0.14530927
149	0x3e5e7c5e	0.2172713
150	0x3daa2393	0.083075665
151	0x3ca82fd3	0.020530617
152	0xbe31f844	-0.17379862
153	0xbd8ba47d	-0.06818483
154	0xbf022e22	-0.50851643
155	0xbe1677e1	-0.14694168
156	0x3d83d11a	0.06436367
157	0xbd99f4c7	-0.07517391
158	0x3da0bfa8	0.078490555
159	0xbce0bc78	-0.027433619
160	0x3db66f4d	0.08907948
161	0xbc82166f	-0.015879838
162	0x3e463b59	0.19358577
163	0x3d728c2a	0.059215702
164	0x3c8d6edb	0.017264774
165	0xbd6684d2	-0.05627901
166	0xbd7f992f	-0.062401947
167	0x3d86094c	0.06544742
168	0x3d94eaae	0.07271324
169	0x3e4f3943	0.20236687
170	0xbdb2d67c	-0.08732316
171	0xbe578573	-0.21047
172	0xbd6fe960	-0.058572173
173	0x3decb240	0.11557436
174	0x3c9e4908	0.019321933
175	0x3e117dcc	0.14208144
176	0xbe29f3d4	-0.1659692
177	0x3d332b78	0.043742627
178	0xbc5dbddb	-0.013534035
179	0x3e7f9254	0.24958163
180	0xbe1b4fc8	-0.15167153
181	0x3c1e535a	0.009663427
182	0x3d42886a	0.047493376
183	0xbe1f02c1	-0.15528394
184	0xbcdf0b54	-0.027227081
185	0xbe437be4	-0.1909023
186	0x3ce08cb5	0.027410844
187	0x3ea689ac	0.3252691
188	0x3e50f96b	0.20407645
189	0x3cf2d02f	0.029640285
190	0xbd9fb55a	-0.07798262
191	0xbe045abf	-0.12925242
192	0xbbd767d6	-0.0065736575
193	0x3eace889	0.3377116
194	0x3e08d61e	0.13362929
195	0xbe18f088	-0.14935505
196	0x3d93cb9e	0.07216571
197	0x3e02ea74	0.1278475
198	0x3e279920	0.16367006
199	0xbcf4bf68	-0.029876426
200	0x3ee1f050	0.44128656
201	0x3df3ec61	0.1191032
202	0x3e40c679	0.18825711
203	0x3e9ebe45	0.3100454
204	0x3e5a2f5e	0.21307132
205	0x3d901c73	0.07036676
206	0xbec7f066	-0.39050597
207	0xbcfb21d3	-0.030655777
208	0x3e9433ab	0.2894567
209	0x3e1a9def	0.1509931
210	0xbdfd16c3	-0.12357857
211	0xbe58a1a9	-0.21155418
212	0xbe3c7928	-0.18405592
213	0x3e5ad02a	0.21368471
214	0xbe4786f0	-0.19485068
215	0xbdd9042a	-0.10596497
216	0x3e6d48d7	0.23172317
217	0x3dccf291	0.10007203
218	0xbdbf1bb4	-0.09331456
219	0xbda6a2b8	-0.08136505
220	0xbcac50cf	-0.021034626
221	0x3e0ca58b	0.13735025
222	0xba233b12	-0.00062267587
223	0x3e9ab933	0.3021942
224	0x3c54a5e1	0.012979002
225	0x3dc157a9	0.09440548
226	0xbd29cb16	-0.041453443
227	0x3e8ec817	0.2788703
228	0x3edc820b	0.43067965
229	0xbe791040	-0.24322605
230	0x3d838402	0.06421663
231	0xbd976ab9	-0.073934026
232	0x3de13d6c	0.109980434
233	0xbdcbe187	-0.09955125
234	0x3e1dce84	0.1541081
235	0x3daad4d8	0.08341378
236	0xbcf94fa0	-0.030433476
237	0xbbd6fef5	-0.006561155
238	0x3de63db2	0.11242236
239	0xbe8fbffb	-0.28076157
240	0x3e8579a0	0.26069355
241	0xbe264430	-0.16236949
242	0x3e2b7989	0.1674558
243	0xbd55cf9f	-0.052199956
244	0xbdb8a565	-0.090159215
245	0x3dac5877	0.08415311
246	0xbc597ad7	-0.013273916
247	0x3ea4c36f	0.32180354
248	0xbea2db30	-0.31807852
249	0xbc8eaf39	-0.017417537
250	0x3d9ba498	0.07599753
251	0xbcf467ec	-0.02983471
252	0xbddf7930	-0.109117866
253	0xbdf8a0b9	-0.121400304
254	0x3d71b4b8	0.059010237
255	0xbe81eb34	-0.25374758

lstm.bias_ih_l0 f4 [256]
0	0xbc3a7448	-0.011380263
1	0xbd836791	-0.06416238
2	0x3e48a312	0.19593456
3	0x3d6b55ef	0.057455
4	0x3db18ca9	0.08669407
5	0x3dd539ab	0.1041139
6	0x3d87d8e6	0.06633167
7	0xbb1d17db	-0.0023970518
8	0x3d4f1af7	0.050562825
9	0x3d96a9c0	0.07356596
10	0x3d93bbae	0.072135314
11	0xbc9f4fb2	-0.019447181
12	0xbd8885cd	-0.066661455
13	0x3d85b06b	0.0652779
14	0x3cb75829	0.022380905
15	0x3d92e0ee	0.07171808
16	0x3c11dc0f	0.008902564
17	0x3dce7c11	0.100822575
18	0xbe2b5a03	-0.16733555
19	0xbe15ed6a	-0.14641348
20	0x3e168ac7	0.14701377
21	0x3e1a3cf8	0.1506232
22	0xbd8298f6	-0.06376831
23	0x3d9dc79b	0.07704087
24	0xbd444df4	-0.047925904
25	0xbd6828c0	-0.056679487
26	0x3e38986a	0.18026891
27	0x3e045d85	0.129263
28	0x3def405f	0.116822
29	0x3dcddfef	0.100524776
30	0xbb4a2c6e	-0.0030849236
31	0x3dffba78	0.12486738
32	0xbc4055d9	-0.011739218
33	0xbbebddc4	-0.0071980674
34	0xbd4543c8	-0.048160344
35	0xbdb065f5	-0.08613197
36	0x3e169048	0.14703476
37	0x3d77ea8c	0.060526416
38	0xbdb088c7	-0.08619838
39	0x3d6eb90e	0.05828195
40	0xbbea6afb	-0.0071538663
41	0xbd5bea88	-0.053690463
42	0xbd066126	-0.03280749
43	0x3c44c75a	0.01201042
44	0xbded31ff	-0.115818016
45	0x3d32f0a0	0.04368651
46	0xbd4408cb	-0.047859948
47	0x3e0a5f3f	0.13512896
48	0x3d18c0b2	0.037293144
49	0x3c2fb2ae	0.010723753
50	0xbddbaeb5	-0.10726682
51	0x3c67649e	0.01412311
52	0xbde4abb7	-0.111655645
53	0xbe330efb	-0.17486183
54	0xbdefd435	-0.11710397
55	0xbc027a5e	-0.007963745
56	0x3dd11dbc	0.102107495
57	0xbd439c2b	-0.047756355
58	0xbb059ece	-0.0020388844
59	0x3d74b9f0	0.059747636
60	0xbc091877	-0.008367649
61	0x3e129ab1	0.14316823
62	0xbd0b2476	-0.03397032
63	0x3db39ae4	0.087697774
64	0xbd7c7003	-0.06163026
65	0x3e2431e2	0.16034654
66	0xbdec0b7e	-0.115256295
67	0xbd422cdf	-0.047406074
68	0xbc4bf5bd	-0.012448725
69	0x3d99a924	0.07502964
70	0xbd85059e	-0.06495212
71	0x3de5ce36	0.11220972
72	0x3dc89d4e	0.097956285
73	0xbcea7984	-0.028622396
74	0xbd86688f	-0.06562912
75	0xbd60142b	-0.054706734
76	0xbdcd5f0e	-0.10027896
77	0xbd65c00b	-0.05609135
78	0x3df2f3f0	0.11862934
79	0x3c7c4caa	0.0153991375
80	0x3e0cad57	0.13737999
81	0x3e297371	0.16547944
82	0xbdd1aa17	-0.1023752
83	0xbcc770c2	-0.02434576
84	0x3d902ba0	0.07039571
85	0xbc870fa9	-0.01648696
86	0xbc278caa	-0.010226408
87	0xbdcdcbf7	-0.10048669
88	0xbce4abb1	-0.0279139
89	0xbdfe3082	-0.12411596
90	0xbd4b62a4	-0.049654618
91	0x3e47ad31	0.19499661
92	0xbd558123	-0.052125107
93	0x3dbb95c2	0.091594234
94	0x3d101aaf	0.035181697
95	0x3daf7968	0.08568078
96	0x3de7ed18	0.11324519
97	0xbca7ba92	-0.020474706
98	0x3d4d37b5	0.050101954
99	0xbd0f7feb	-0.0350341
100	0x3d27487f	0.040840622
101	0x3cd32fe0	0.025779665
102	0xbd4a42fa	-0.04938028
103	0xbdbd8fbe	-0.09255932
104	0xbd0a5f72	-0.03378243
105	0xbc951446	-0.018198144
106	0xbd5b45e4	-0.05353345
107	0xbe2dc6dc	-0.1697039
108	0x3c71dcad	0.014762086
109	0xbdd0fb9a	-0.10204239
110	0xbdc5d143	-0.09659054
111	0x3e030880	0.12796211
112	0x3d240703	0.04004575
113	0x3d37d70c	0.04488282
114	0xbdcdc76e	-0.10047804
115	0xbd770407	-0.060306575
116	0xbe0b37fa	-0.13595572
117	0xbe1a3cb0	-0.15062213
118	0xbdc063e9	-0.09394056
119	0xbd92d90a	-0.07170303
120	0xbd0f0795	-0.03491934
121	0x3d5e119a	0.054216005
122	0xbe3791d3	-0.17926721
123	0xbcc8617b	-0.024460545
124	0xbb7ba20e	-0.0038396153
125	0xbd762754	-0.0600961
126	0xbd408bda	-0.047008373
127	0x3c9ff610	0.019526511
128	0x3c8ae63a	0.016955484
129	0x3c708071	0.01467906
130	0xbe3d1d54	-0.18468219
131	0xbd8db786	-0.0691977
132	0x3c822384	0.015886076
133	0x3d8729dd	0.06599782
134	0x3dded4c6	0.10880427
135	0x3dfa4ef4	0.1222209
136	0x3db641fa	0.08899303
137	0x3c450d88	0.012027152
138	0xbcd65cdf	-0.026167331
139	0xbc19b11c	-0.009380605
140	0x3d02e10c	0.031952903
141	0xbbf8e366	-0.0075954674
142	0xbd01ad7c	-0.03165959
143	0x3dbcaa4d	0.0921217
144	0xbd03fc65	-0.032223124
145	0xbe188d23	-0.1489759
146	0x3d3da536	0.046300136
147	0xbd92a339	-0.071600385
148	0x3d00bc29	0.031429444
149	0x3d9ccf68	0.07656747
150	0xbdb5d23b	-0.08877989
151	0xbd234817	-0.039863672
152	0xbd813b90	-0.06310189
153	0xbdc76e68	-0.09737855
154	0xbd68f668	-0.056875616
155	0x3dd2ad39	0.10286946
156	0xbd9cee17	-0.076625995
157	0x3c8460d3	0.01615945
158	0xbd98286a	-0.07429583
159	0xbdcc6cb3	-0.0998167
160	0xbad459f7	-0.0016201128
161	0x3d380b1f	0.04493248
162	0x3d9a8635	0.07545129
163	0xbd05d0ca	-0.03266982
164	0x3d9f67b4	0.07783452
165	0xbde80b44	-0.11330274
166	0xbc8d2f7b	-0.017234555
167	0xbe1c58bf	-0.15268229
168	0xbc33ae7f	-0.010966896
169	0x3d5bdac3	0.053675424
170	0xbd92d8e2	-0.07170273
171	0x3d8f8ea7	0.07009631
172	0xbd9449b0	-0.07240617
173	0xbd7bce1b	-0.061475854
174	0xbb2db2ca	-0.0026504272
175	0xba139ce5	-0.0005630984
176	0xbd4de119	-0.050263498
177	0xbdee1588	-0.116252005
178	0xbdbe8c58	-0.09304112
179	0xbe107570	-0.14107299
180	0x3c5e2359	0.013558232
181	0x3dd0cb8f	0.10195076
182	0x3d815774	0.063155085
183	0xbba9c7bc	-0.005181281
184	0xbc61b47e	-0.013775943
185	0xbd9228d4	-0.071366936
186	0x3db0a49d	0.086251475
187	0x3d8d0c8a	0.06887157
188	0xbc5330f6	-0.012890091
189	0x3be91b5a	0.0071138563
190	0x3d465929	0.048424874
191	0x3d4dff8e	0.050292544
192	0xbdd0eee7	-0.10201817
193	0xbc314456	-0.010819515
194	0x3d9f990b	0.077928625
195	0xbd7dad84	-0.061933056
196	0xbd697f40	-0.05700612
197	0xbdd58a7b	-0.10426804
198	0xbcceac71	-0.02522871
199	0xbc721602	-0.014775755
200	0x3de35dd1	0.111018784
201	0xbdb264f3	-0.08710661
202	0xbd9a8cff	-0.07546424
203	0x3d87db65	0.06633643
204	0x3db075a5	0.08616189
205	0xbda5ce52	-0.08095993
206	0x3e227eec	0.1586873
207	0x3d841364	0.06449011
208	0x3de213ff	0.1103897
209	0x3d4d9feb	0.050201338
210	0x3c0834e4	0.008313391
211	0xbdeaed10	-0.11470997
212	0x3e09b785	0.13448913
213	0xbc6c0f6d	-0.014407975
214	0x3ce3ac11	0.027792009
215	0x3d1d3b5a	0.03838668
216	0x3e265ea1	0.16247036
217	0x3d856dfd	0.06515119
218	0x3c8e9297	0.017403884
219	0xbd75f88c	-0.060051486
220	0x3e14e34c	0.14539832
221	0x3d5e80e2	0.05432213
222	0x3cbe27ce	0.02321234
223	0x3bc73110	0.0060788468
224	0x3cd47da3	0.025938815
225	0xbc285fae	-0.010276718
226	0x3ced7cc7	0.028990163
227	0xbc8b624a	-0.017014641
228	0x3dbd2bab	0.09236845
229	0x3d9dcbee	0.07704912
230	0xbce3ed05	-0.02782298
231	0x3ccb8123	0.02484185
232	0xbd9c2b38	-0.07625431
233	0xbda8da48	-0.08244759
234	0xbe06f917	-0.13180958
235	0x3c0b02a1	0.0084845135
236	0xbdaab6fa	-0.08335681
237	0xbdf417e5	-0.1191862
238	0xbde375eb	-0.111064754
239	0x3d340531	0.043950263
240	0xbbbf42c4	-0.0058368165
241	0x3d845222	0.06460978
242	0x3d91e298	0.071232975
243	0xbde5c43c	-0.11219069
244	0xbdabe921	-0.08394075
245	0xbdb8b7b3	-0.09019413
246	0xbc6de554	-0.014520008
247	0xbbfc61e2	-0.007702098
248	0x39a97ada	0.00032325723
249	0xbda28fca	-0.07937582
250	0xbdd6c91d	-0.10487578
251	0xbd4f6329	-0.050631676
252	0x3c9a7af7	0.018857462
253	0x3d31d7ec	0.04341881
254	0x3e05ec45	0.13078411
255	0x3d48b226	0.04899802

lstm.bias_hh_l0 f4 [256]
0	0x3b736614	0.00371397
1	0x3d0b328a	0.033983745
2	0x3d8e8f80	0.06960964
3	0x3d1bab07	0.0380049
4	0x3dd6b7bb	0.104842626
5	0x3d9f41f7	0.07776254
6	0xbc395e06	-0.011313921
7	0xbd47793a	-0.048699595
8	0x3c9bcd05	0.01901866
9	0xbcfdb640	-0.030970693
10	0x3c11a7a1	0.0088900635
11	0x3de59e26	0.11211805
12	0x3d0e4ed8	0.03474316
13	0xbcd0a4ef	-0.025469271
14	0x3e2ca923	0.16861396
15	0xbe011ed5	-0.12609418
16	0x3de5ed9b	0.1122696
17	0x3e37bd4e	0.17943308
18	0xbe0bb0cf	-0.13641666
19	0xbdde4e3d	-0.108547665
20	0x3e25319d	0.16132207
21	0x3d206ac6	0.039164327
22	0x3d740f67	0.059585
23	0x3dacb6d5	0.0843331
24	0xbd244181	-0.040101532
25	0x3c46d44d	0.012135577
26	0xbd0b9bc4	-0.034084097
27	0x3c793ab7	0.015211753
28	0xbd9545c7	-0.072886996
29	0x3da7c93d	0.0819268
30	0xbcd92191	-0.026505264
31	0x3d4c8341	0.04992986
32	0x3dc282a2	0.094975725
33	0x3b684380	0.0035440624
34	0xbdc99177	-0.09842198
35	0xbdd128bc	-0.102128476
36	0x3d3e5d0c	0.046475455
37	0x3e46087a	0.19339171
38	0xbdf252ae	-0.11832176
39	0xbbf11e32	-0.007358336
40	0x3e150b15	0.14555009
41	0x3cf095f8	0.029368386
42	0xbcc90ecc	-0.024543189
43	0x3daf721f	0.08566689
44	0xbd538437	-0.05163976
45	0xbdb780a1	-0.08960081
46	0xbd9311ed	-0.071811534
47	0x3d117209	0.035509143
48	0xbbf1f10f	-0.0073834728
49	0xbd9191f3	-0.07107916
50	0xbdd21f8e	-0.10259925
51	0xbd113b15	-0.035456736
52	0x3cdc2494	0.02687291
53	0xbd8e8fa6	-0.069609925
54	0xbdc5380e	-0.09629832
55	0xbd2877bf	-0.041129824
56	0x3d604aca	0.054758824
57	0xbd9db4cb	-0.07700499
58	0x3dd778c5	0.10521082
59	0x3dfd9d76	0.12383549
60	0x3e1b3fc6	0.15161046
61	0x3d40bd19	0.047055338
62	0xbd962186	-0.07330613
63	0xbc4a961b	-0.0123648895
64	0x3d32e8a2	0.043678887
65	0x3df0e571	0.117625125
66	0x3d052868	0.032509238
67	0x3d2f1600	0.04274559
68	0xbd174067	-0.036926653
69	0x3df07f3b	0.11743017
70	0x3dc95ffd	0.098327614
71	0xbdfb3ee3	-0.12267854
72	0x3dcaed4a	0.099085405
73	0x3da21862	0.07914807
74	0x3dcb46b8	0.09925598
75	0xbdc16509	-0.09443099
76	0xbc5539b5	-0.013014247
77	0x3dcaf3fa	0.09909816
78	0x3da9aac1	0.08284522
79	0xbdabc4e7	-0.083871655
80	0x3d67235e	0.056430213
81	0xbd1f2155	-0.038850147
82	0xbe12cec8	-0.14336693
83	0x3d28203d	0.04104637
84	0x3d9f5135	0.07779161
85	0xbdcc8499	-0.099862285
86	0xbd131617	-0.03590974
87	0xbe26d2c4	-0.16291338
88	0xbd101c42	-0.0351832
89	0xbdf590c4	-0.119905025
90	0xbd42c88b	-0.047554534
91	0x3e406951	0.18790175
92	0xbdd52974	-0.10408297
93	0x3e086d8a	0.13323036
94	0xbdaa5628	-0.08317214
95	0x3d232880	0.039833546
96	0xbe028a19	-0.12747993
97	0xbe16441c	-0.14674419
98	0xbde7df39	-0.11321873
99	0x3e1296f1	0.14315392
100	0xbc91e7f0	-0.017810792
101	0x3e02f079	0.12787046
102	0x3cbdcfd7	0.023170395
103	0xbda099e8	-0.07841855
104	0x3dbc8ce7	0.092065625
105	0x3d625a9d	0.055262197
106	0x3d82fa93	0.063954495
107	0xbdf00095	-0.11718861
108	0xbdf4b4d1	-0.119485505
109	0x3db1ef03	0.08688166
110	0x3d476149	0.048676763
111	0x3e0632a3	0.13105254
112	0x3bd9bfdd	0.0066451863
113	0xbdc1664f	-0.09443342
114	0x3da7cc8e	0.081933126
115	0xbd56e5a0	-0.05246508
116	0xbe0a5a6f	-0.1351106
117	0xbd21fd7c	-0.039548382
118	0xbdd1dbc6	-0.102469966
119	0x3c84c6a9	0.01620801
120	0xbd8479da	-0.06468554
121	0x3e13099a	0.14359131
122	0xbe1931d6	-0.14960417
123	0xbd0a408d	-0.033752967
124	0x3dc7831f	0.09741806
125	0xbdf161a4	-0.117862016
126	0xbcaa7b61	-0.020810785
127	0x3bd9a66b	0.006642153
128	0x3c6be63f	0.014398157
129	0xbd8f053d	-0.06983421
130	0x3cde1bd3	0.027112877
131	0x3ce34cc3	0.027746564
132	0xbd913010	-0.07089245
133	0xbd3f435f	-0.04669511
134	0x3dbb4ed2	0.09145893
135	0xbd9e33ec	-0.07724747
136	0xbd9cbca5	-0.076531686
137	0x3bb92089	0.0056496304
138	0xbd208a4f	-0.0391944
139	0xbdc6b658	-0.09702748
140	0x3c9b965a	0.018992592
141	0x3da46445	0.080269374
142	0xbdcb938a	-0.0994025
143	0x3dac31d1	0.08407939
144	0x3cfad58a	0.030619401
145	0x3c717a15	0.014738579
146	0x3d4963bf	0.04916739
147	0x3dbfd1cf	0.0936619
148	0x3d14d1d1	0.03633291
149	0x3e079a79	0.1324252
150	0xbdaa3b89	-0.08312137
151	0x3db00cf4	0.085962206
152	0x3dd8f5a7	0.105937295
153	0x3d7720ca	0.060334004
154	0xbe2a9580	-0.16658592
155	0xbd647ace	-0.05578118
156	0xbd1d8b26	-0.03846278
157	0xbc8e0e88	-0.017340913
158	0x3c5874b7	0.013211421
159	0x3d7d2dad	0.061811138
160	0xbd723da0	-0.0591408
161	0x3c9f884a	0.019474167
162	0xbcd914ac	-0.026499115
163	0xbd056601	-0.03256798
164	0xbb42e20e	-0.002973679
165	0xba09553c	-0.0005238836
166	0x3cea50d2	0.028602991
167	0x3da425cc	0.08015022
168	0xbe1792a0	-0.14802027
169	0xbbad4a12	-0.005288371
170	0xbb1c2eb7	-0.0023831555
171	0xbdbc66e7	-0.091993146
172	0x3dcaa5c0	0.098948956
173	0xbd42fced	-0.04760449
174	0x3c110e6e	0.008853538
175	0x3ddfb9d3	0.10924115
176	0x3cd81cf7	0.026380999
177	0x3deee931	0.116655715
178	0x3e15f342	0.14643577
179	0x3d6a4a1e	0.05719959
180	0x3ced55af	0.028971521
181	0x3a699075	0.00089097704
182	0xbdb280e5	-0.08715991
183	0xbd9b0dd9	-0.075710006
184	0xbde3ebae	-0.11128937
185	0xbd8d65e1	-0.069041975
186	0xbcdc0e46	-0.026862275
187	0x3caebcd7	0.02133028
188	0x3c3e74e8	0.011624552
189	0xbd99b82d	-0.07505832
190	0x3de8f058	0.11373967
191	0xbdbb2b20	-0.09139085
192	0x3d5f70dd	0.054550994
193	0xbe077cd7	-0.13231216
194	0xb95847de	-0.00020626138
195	0x3d6af79a	0.057365038
196	0xbcf01f75	-0.029311875
197	0xbd6488b1	-0.05579442
198	0x3d48bb6d	0.04900687
199	0x3ce46c42	0.027883653
200	0x3dd46eb9	0.10372681
201	0xbdb12985	-0.08650497
202	0xbdf11e7e	-0.11773394
203	0x3e0d3c02	0.13792422
204	0x3da66b93	0.08125987
205	0x3d92d820	0.07170129
206	0x3c869ae9	0.016431289
207	0xbcb0dde5	-0.021590183
208	0x3d998996	0.074969456
209	0x3de547a4	0.11195305
210	0xbcc9368c	-0.024562143
211	0xbdbcf249	-0.092259
212	0xbc689a7b	-0.014196987
213	0x3e379855	0.17929204
214	0x3be48aea	0.0069745677
215	0xbd00fe3e	-0.031492464
216	0x3dbee636	0.09321253
217	0xbdbc5128	-0.09195167
218	0x3d7afeb6	0.061278068
219	0xbc83b1e2	-0.016076032
220	0xbc3bfbb4	-0.011473585
221	0xbd92c94b	-0.071673
222	0xbd8c2376	-0.06842701
223	0x3d9177fe	0.07102965
224	0x3cf38b09	0.029729383
225	0x3da5d9b2	0.08098163
226	0xbd8ab731	-0.06773222
227	0xbcde235f	-0.027116476
228	0x3e1d3d17	0.15355335
229	0xbc25651c	-0.010094907
230	0x3c8578b8	0.016292915
231	0xbaed5d34	-0.0018109442
232	0x3ddbe69a	0.10737343
233	0x3e1c0687	0.15236865
234	0xbd5872cd	-0.052843858
235	0xbd796e14	-0.060895994
236	0xbdd5730c	-0.10422334
237	0xbc052700	-0.008126974
238	0xbdbd1beb	-0.092338406
239	0x3cd53d07	0.026030077
240	0xbce8f87a	-0.028438795
241	0xbd89668e	-0.06709014
242	0x3dd55a8a	0.104176596
243	0xbdb3e8ab	-0.08784612
244	0xbd0f041a	-0.03491602
245	0xbdca164e	-0.098675355
246	0x3cc71a1b	0.02430444
247	0x3e319efb	0.17345802
248	0xbda8c983	-0.0824156
249	0x3cd16f75	0.025565842
250	0x3cfa594b	0.030560156
251	0x3dec30f7	0.11532777
252	0xbd6ac7fc	-0.057319626
253	0x3d6ef788	0.058341533
254	0x3d403ae2	0.046931155
255	0xbce0d988	-0.027447477

lstm.weight_ih_l1 f4 [256, 64]
0	0xbe0bb3ee	-0.13642856
1	0x3d482ce8	0.04887095
2	0xbdeee9d2	-0.116656914
3	0x3c93ab71	0.018026086
4	0xbe216eb4	-0.15764886
5	0xbdb7eea5	-0.08981065
6	0xbd9e9de6	-0.077449605
7	0x3da658b2	0.08122386
8	0xbbab442a	-0.0052266316
9	0x3d6166ed	0.0550298
10	0xbe2f520a	-0.17121139
11	0xbe8962c2	-0.2683316
12	0xbce3e394	-0.027818479
13	0x3d94109f	0.07229733
14	0x3dd92624	0.10602978
15	0x3d4f334d	0.050586034
16	0xbd117a45	-0.035516996
17	0xbe12f06d	-0.14349528
18	0xbd92f6d4	-0.07175985
19	0x3dcb3d06	0.09923749
20	0x3daa82bd	0.083257176
21	0xbcf50fc8	-0.029914752
22	0x3e1fdca9	0.15611519
23	0x3e273b5c	0.16331238
24	0xbdaad2c1	-0.08340979
25	0x3cf4cc58	0.029882595
26	0xbe05666c	-0.13027352
27	0x3e085f7e	0.13317677
28	0x3d32b6b2	0.043631263
29	0x3e0c381e	0.13693282
30	0x3cec3b3e	0.028836843
31	0xbdf54f4e	-0.11978017
32	0xbce7683f	-0.02824795
33	0x3d039842	0.032127626
34	0x3d9877b1	0.07444704
35	0xbd2ccc62	-0.042187102
36	0xbdae7a4f	-0.08519422
37	0xbcf33742	-0.029689435
38	0x3d72bd06	0.059262298
39	0x3d87b205	0.066257514
40	0x3dde6478	0.10859007
41	0xbcfb82ed	-0.030702079
42	0xbc943ffd	-0.018096918
43	0xbd18251a	-0.037144758
44	0x3e0197bb	0.12655537
45	0xbca8168a	-0.02051856
46	0x3c2bfe28	0.010497607
47	0x3d9ec4be	0.07752369
48	0x3d086cc8	0.033306867
49	0xbb289d67	-0.0025728585
50	0xbdf9d0a7	-0.121980004
51	0x3e0eea21	0.139565
52	0xbd85c913	-0.065324925
53	0xbdc57b67	-0.09642678
54	0x3d7a8ac0	0.06116748
55	0x3d9a1334	0.07523194
56	0x3de16f32	0.11007537
57	0x3e5a59cd	0.21323319
58	0x3e6b823a	0.22998896
59	0xbc3bab66	-0.011454439
60	0x3e16fad0	0.14744115
61	0x3d89ce48	0.06728798
62	0x3de60563	0.11231496
63	0xbe917102	-0.2840653
64	0xbdbb08c9	-0.09132535
65	0xbda7c155	-0.08191172
66	0x3d638b46	0.055552743
67	0x3d84c7d1	0.064834245
68	0x3d2f8e65	0.042860407
69	0x3da559aa	0.08073743
70	0x3d5e5f41	0.05429006
71	0xbd879c0a	-0.06621559
72	0x3d4cf13d	0.05003475
73	0x3e2f7ac8	0.17136681
74	0x3d0ee1ba	0.03488324
75	0x3e3b1955	0.18271382
76	0x3d43fbc7	0.047847535
77	0xbdcd6e09	-0.10030753
78	0x3e2155ff	0.15755461
79	0x3c653c4e	0.013991429
80	0xbdfc3b2e	-0.12315975
81	0x3d310daf	0.04322594
82	0xbdf0d182	-0.117587104
83	0xbce87904	-0.028378017
84	0xbd25bc35	-0.04046269
85	0xbcedba60	-0.029019535
86	0xbccc53bd	-0.024942273
87	0xbe357ac7	-0.17722617
88	0x3d283ad0	0.041071713
89	0xbe25f1af	-0.16205476
90	0xbd6adacf	-0.05733758
91	0xbc761a1b	-0.0150208725
92	0xbd54607a	-0.05184982
93	0x3e033aba	0.12815371
94	0x3dda4c97	0.106591396
95	0xbd1ebfa3	-0.038756978
96	0x3d9f4518	0.077768505
97	0x3cd1c1ea	0.02560516
98	0x3c010ac3	0.007876101
99	0x3e0c7d83	0.13719754
100	0xbd8d6a1a	-0.06905003
101	0x3e4f9939	0.20273294
102	0x3d1b76da	0.037955143
103	0xbe00b6fe	-0.12569806
104	0xbc3c0ce2	-0.011477681
105	0xbd32283b	-0.043495398
106	0x3dea854d	0.11451206
107	0xbceba7bb	-0.028766504
108	0xbd929081	-0.07156468
109	0x3c96022e	0.018311586
110	0x3e058526	0.13039073
111	0x3e55b42d	0.20869513
112	0xbd907336	-0.07053225
113	0xbc8dacb4	-0.017294265
114	0xbd7542ec	-0.059878275
115	0xbdeb5545	-0.11490873
116	0xbd8f8d2f	-0.070093505
117	0x3cfbcded	0.030737842
118	0xbd5663f0	-0.0523414
119	0x3e457c68	0.19285738
120	0xbd07f4e8	-0.033192545
121	0x3c992f1d	0.018699223
122	0xbda0e86f	-0.07856833
123	0x3e56d2ae	0.20978805
124	0x3d12a1d1	0.03579885
125	0x3daee5ea	0.085399464
126	0xbe5eb1f4	-0.21747571
127	0x3eb4c5e5	0.35307232
128	0x3d9471fd	0.07248304
129	0x3e350e88	0.17681324
130	0xbda0b6d6	-0.07847373
131	0x3bab36b5	0.0052250274
132	0x3cdc9707	0.026927484
133	0xbda10127	-0.07861548
134	0x3cf0826b	0.029359063
135	0xbc51ca90	-0.012804642
136	0x3c96623a	0.018357385
137	0x3dddc6ba	0.1082892
138	0xbcd8f41f	-0.026483594
139	0x3e0172e7	0.12641488
140	0x3d99077e	0.07472132
141	0xbb5a15c0	-0.0033277124
142	0x3e02461a	0.12722054
143	0x3ca9cfe8	0.02072902
144	0xbba7b80a	-0.0051183747
145	0x3d8f158a	0.0698653
146	0x3c3d66bb	0.011560137
147	0xbe2a7f96	-0.16650233
148	0x3de11fcb	0.10992392
149	0x398e36cd	0.0002712518
150	0x3ca21dd9	0.019789623
151	0xbcf33f5c	-0.029693298
152	0x3dcb741f	0.09934258
153	0xbdc82dd6	-0.097743675
154	0x3ca0a7a6	0.019611191
155	0x3dee6561	0.1164043
156	0xbd6003bd	-0.054691065
157	0x3b9f0ea4	0.00485404
158	0x3c39b974	0.011335719
159	0xbdfa62bc	-0.12225863
160	0x3d5ff96e	0.054681234
161	0x3e00bfc0	0.12573147
162	0x3d40c483	0.04706241
163	0x3cb36df4	0.021903016
164	0xbeac6fa3	-0.33678922
165	0xbdf060bf	-0.11737203
166	0x3d6fc70a	0.058539428
167	0x3de4d163	0.1117275
168	0x3cbf1a83	0.023328071
169	0x3de2491d	0.110491015
170	0x3d9af8ab	0.07566961
171	0xbe094f8c	-0.13409251
172	0xba951d57	-0.0011376542
173	0xbd86c123	-0.06579807
174	0xbd74e138	-0.059785098
175	0x3d66a520	0.05630982
176	0xbcaf4edf	-0.021399913
177	0x3d93e690	0.07221711
178	0xbcee5a4b	-0.02909579
179	0xbd2f1dd9	-0.042753074
180	0xbd097e83	-0.033567917
181	0x3dae817e	0.085207924
182	0xbe35e56b	-0.17763297
183	0xbe37b105	-0.17938621
184	0xbc4aeb77	-0.012385241
185	0xbc7d4e4f	-0.015460565
186	0x3db1bba8	0.08678371
187	0xbc1bcfa6	-0.009509956
188	0x3d608cc3	0.05482174
189	0x3d229086	0.03968861
190	0x3c9c91a6	0.01911242
191	0x3d2f0ee8	0.042738825
192	0xbc483406	-0.012219435
193	0xbcd17ae6	-0.025571298
194	0xb9cac7e3	-0.0003867737
195	0x3b9745d8	0.0046164803
196	0x3da40bc4	0.080100566
197	0x3aa51861	0.0012595766
198	0x3d22d3e9	0.039752875
199	0x3ccd0b26	0.02502973
200	0xbdee4258	-0.11633748
201	0xbd5cdb95	-0.053920347
202	0x3c426184	0.01186407
203	0x3e067fd0	0.13134694
204	0x3dc73d5a	0.09728499
205	0xbce3bb0a	-0.027799148
206	0xbd8a14e7	-0.06742268
207	0xbd18b82c	-0.037285015
208	0x3db136c5	0.086530246
209	0x3d3f402c	0.04669206
210	0x3cad564d	0.021159315
211	0x3c71ff1c	0.0147702955
212	0x3d07fe9c	0.0332018
213	0xbd8b2ac9	-0.0679527
214	0x3cf75faf	0.030196993
215	0x3c90adcb	0.017660996
216	0xbd71bba5	-0.059016842
217	0x3d5f9355	0.054583866
218	0xbda3e8d6	-0.08003394
219	0x3d0e66ad	0.034765888
220	0xbdaf7124	-0.08566502
221	0xbd6dc5e8	-0.058050066
222	0xbd98ae34	-0.074551016
223	0xbe129ceb	-0.14317672
224	0x3bdcad20	0.0067345053
225	0x3c885d85	0.016646156
226	0x3d2a22a2	0.041536935
227	0xbe0c68d9	-0.13711871
228	0xbe460910	-0.19339395
229	0x3c6b98a0	0.01437965
230	0xbdc3177d	-0.095259644
231	0x3cf96c53	0.03044716
232	0xbd1a3787	-0.03765061
233	0x3d1f185c	0.03884159
234	0x3e0a80cb	0.13525693
235	0xbe2abe7c	-0.16674227
236	0xbd9c31e3	-0.07626703
237	0xbda07a4a	-0.07835825
238	0x3e16b78c	0.14718455
239	0x3d9f1fcb	0.07769736
240	0xbd60bc98	-0.054867357
241	0xbd876e93	-0.06612887
242	0xbb40ac92	-0.0029399735
243	0x3cc1e0e9	0.023666816
244	0xbdb54893	-0.08851733
245	0x3c99222c	0.018693052
246	0x3dacd235	0.08438531
247	0xbd4a15e7	-0.049337294
248	0xbccded08	-0.02513744
249	0xbc32e90c	-0.0109198205
250	0xbd5a9857	-0.05336794
251	0xbd1ba6d0	-0.03800088
252	0x3db4a095	0.08819691
253	0x3d474ba4	0.04865612
254	0xbe191357	-0.14948784
255	0x3d87dcc8	0.066339076

lstm.weight_hh_l1 f4 [256, 64]
0	0xbcde6d49	-0.02715172
1	0xbc1ad0dc	-0.00944921
2	0xbd011e7d	-0.031523217
3	0xbe3479a5	-0.17624529
4	0x3e2d3b82	0.16917232
5	0x3d3dd872	0.046348996
6	0xbe0c92e9	-0.13727917
7	0xbdae5ed3	-0.0851418
8	0xbd7be120	-0.061493993
9	0xbdf2e25d	-0.118595816
10	0x3dc54bfd	0.09633634
11	0xbc81f25a	-0.015862633
12	0x3b1bcf5b	0.0023774717
13	0xbd939626	-0.07206373
14	0xbd9ff7b8	-0.078109205
15	0x3e3263a4	0.17420822
16	0xbe3eb217	-0.18622623
17	0x3e411d6f	0.18858884
18	0x3d3e323d	0.04643463
19	0xbc4d9f6b	-0.012550215
20	0xbe1e7535	-0.15474398
21	0xbe1aaa78	-0.15104091
22	0x3d675837	0.056480613
23	0xbdec1113	-0.11526694
24	0x3e498e7a	0.19683257
25	0xbdbe66a1	-0.09296919
26	0xbe3f6a20	-0.18692827
27	0xbde16fa2	-0.110076204
28	0xbc263f7b	-0.010146971
29	0x3d838715	0.06422249
30	0xbd6fac69	-0.058514033
31	0xbd83bd4f	-0.06432592
32	0xbe324dbd	-0.17412467
33	0xbdffb97e	-0.12486552
34	0xbda814d0	-0.08207095
35	0xbca609f8	-0.020268425
36	0xbce1105e	-0.027473625
37	0x3dd6f722	0.104963556
38	0x3dfe26e6	0.12409763
39	0xbdef2c2a	-0.116783455
40	0x3e01db62	0.12681344
41	0x3d683c9c	0.056698427
42	0x3e1b770c	0.15182132
43	0xbe14bba5	-0.14524706
44	0xbe26acf2	-0.16276911
45	0xbe0a7217	-0.13520084
46	0x3da8fc1d	0.08251212
47	0xbeb466dc	-0.35234725
48	0x3e2475a6	0.16060504
49	0x3d7f8fb4	0.062392905
50	0xbe01ef99	-0.12689056
51	0x3ddd34f5	0.108011164
52	0x3d5217b8	0.05129215
53	0xbdf454b1	-0.11930216
54	0x3ce4e3ec	0.027940713
55	0x3c8c85e7	0.017153693
56	0xbe476cf7	-0.1947516
57	0xbcc4301c	-0.023948722
58	0xbd0d39b2	-0.03447885
59	0xbe2febf1	-0.17179848
60	0xbdf1a33a	-0.11798711
61	0xbd3eeae2	-0.04661072
62	0xbe40ffcb	-0.18847577
63	0xbe25cdcb	-0.16191785
64	0x3c3391c9	0.010960051
65	0x3e0d7743	0.13815026
66	0xbc999840	-0.018749356
67	0xbd8d2bf0	-0.06893146
68	0x3d53403b	0.051574927
69	0xbdd4c17a	-0.10388465
70	0x3da55d35	0.080744185
71	0x3b61e8a7	0.0034470947
72	0x3e01d480	0.12678719
73	0x3de19bf0	0.11016071
74	0x3d67b11c	0.05656539
75	0x3e1129e7	0.1417614
76	0x3d408810	0.04700476
77	0xbd058fc6	-0.032607816
78	0x3e500c67	0.20317231
79	0xbdab740f	-0.08371746
80	0xbbfb68c8	-0.007672403
81	0xbd08caab	-0.033396404
82	0x3d92537f	0.07144832
83	0xbe2594bc	-0.16170019
84	0x3d20d3d7	0.039264526
85	0x3b9d2234	0.004795337
86	0xbd9189a5	-0.07106332
87	0xbd16a43e	-0.036777727
88	0xbc55300a	-0.013011942
89	0xbd7a718c	-0.061143443
90	0xbba8b96f	-0.0051490585
91	0x3d36d8d3	0.044640373
92	0xbd63142b	-0.055439156
93	0xbe1ef21b	-0.15522043
94	0x3d630937	0.05542871
95	0xbd88189b	-0.06645318
96	0xbd9cea5f	-0.0766189
97	0xbd52d5ea	-0.051473536
98	0x3cc91b18	0.024549052
99	0x3dd9ca1c	0.106342524
100	0x3c1e146e	0.0096484255
101	0x3d4bca4a	0.049753465
102	0x3d78f5b2	0.06078119
103	0x3dbaa775	0.09113971
104	0xbe1c1e6d	-0.15245982
105	0x3d4a5961	0.049401645
106	0xbd8032af	-0.06259667
107	0x3df8785a	0.1213233
108	0x3df834da	0.12119456
109	0x3c125f74	0.008933891
110	0x3e25fc6f	0.16209577
111	0xbd67957d	-0.056539048
112	0xbdc1e2e1	-0.09467102
113	0x3d56dac8	0.05245474
114	0x3d86f77f	0.06590175
115	0x3b9b9a39	0.0047486094
116	0xbe130896	-0.14358744
117	0x3cb3ef18	0.021964595
118	0xbd86c4fd	-0.06580541
119	0xbd3dd5ae	-0.04634636
120	0x3cc1b271	0.023644658
121	0x3d9e8c50	0.07741606
122	0xbde0d5f4	-0.10978308
123	0xbd43c80e	-0.04779821
124	0xbd528e5c	-0.051405296
125	0x3d81e186	0.06341843
126	0xbc960b7e	-0.018316027
127	0xbc916fdf	-0.01775354
128	0x3d0c4ab8	0.034250945
129	0xbce3744e	-0.02776542
130	0xbd897768	-0.06712228
131	0x3e0ee0c4	0.13952929
132	0xbde9daf9	-0.11418719
133	0x3d11ca07	0.03559306
134	0xbd30bc25	-0.04314818
135	0xbccdc761	-0.025119485
136	0x3dcd09bf	0.100116245
137	0x3dbbe39f	0.09174275
138	0x3e06034f	0.130872
139	0x3e134bfd	0.14384456
140	0x3d8dfae7	0.069326214
141	0xbd4ddba1	-0.050258283
142	0x3dfcf703	0.12351801
143	0xbbc26ce5	-0.0059333914
144	0x3dc5b918	0.096544445
145	0xbd1d8b1d	-0.038462747
146	0xbe104753	-0.14089708
147	0x3da396d7	0.07987755
148	0xbb774944	-0.0037732879
149	0xbd6ca165	-0.057771105
150	0xbcdd92d1	-0.027047547
151	0xbda44017	-0.08020037
152	0xbe158f81	-0.14605524
153	0x3cdfdec9	0.027327912
154	0x3cacd0e4	0.0210957
155	0xbd7b3922	-0.061333783
156	0xbc9c0a08	-0.019047752
157	0xbdd341e8	-0.10315305
158	0xbde2874f	-0.11060964
159	0x3e03c996	0.12869868
160	0x3e194dab	0.14971034
161	0xbcadfe06	-0.021239292
162	0xbbdb5a75	-0.006694133
163	0xbbabc2e5	-0.005241739
164	0xbd01b544	-0.03166701
165	0x3e3ec35c	0.18629211
166	0xbd53421a	-0.05157671
167	0x3d348bda	0.044078685
168	0xbde3206f	-0.110901706
169	0xbd8ca2e6	-0.06867008
170	0x3da71b54	0.08159509
171	0x3dde696d	0.10859952
172	0xbd30d2bf	-0.043169733
173	0xbdd27647	-0.10276466
174	0x3d0feb19	0.035136316
175	0xbb9b3f60	-0.0047377795
176	0x3aed6a96	0.001811343
177	0x3dc691d7	0.096957855
178	0xbb16ec68	-0.0023029093
179	0x3d47a89a	0.048744775
180	0xbdd304b0	-0.103036284
181	0xbe628c3c	-0.22123808
182	0x3c5bb408	0.013409622
183	0xbcff72f7	-0.03118275
184	0x3d940b37	0.072287016
185	0xbde8b61b	-0.11362859
186	0xbe0cbb45	-0.13743313
187	0x3cdea5cc	0.027178667
188	0x3e0eae83	0.13933758
189	0x3c245d38	0.010031991
190	0xbdb5ac3c	-0.08870742
191	0x3cc6e22f	0.024277775
192	0xbe28e019	-0.16491736
193	0xbcdcbcf5	-0.02694557
194	0xbe027d3a	-0.12743083
195	0x3c282012	0.010261552
196	0xbe1c94df	-0.15291165
197	0xbd9e7b89	-0.07738406
198	0x3e108734	0.14114076
199	0xbdcb0d0c	-0.09914598
200	0xbd20e0f4	-0.039277032
201	0xbd300b89	-0.04297975
202	0xbb545603	-0.00323999
203	0xbd3c1d7d	-0.04592656
204	0x3d80bcc8	0.06286007
205	0xbc3e2e7d	-0.011607763
206	0x3e629cab	0.22130077
207	0xbdb68f34	-0.089140326
208	0xbd39bc78	-0.045345753
209	0xbddf97e9	-0.109176464
210	0xbe073522	-0.13203862
211	0x3c2cb930	0.010542199
212	0xbdb1127d	-0.086461045
213	0x3c97f7ef	0.018550841
214	0xbdae3ade	-0.08507322
215	0x3c422fa3	0.011852178
216	0xbd923223	-0.07138469
217	0xbd1b381d	-0.03789531
218	0x3d0ccca7	0.03437486
219	0xbd46c617	-0.048528757
220	0xbd940f69	-0.07229502
221	0x3da5f2b2	0.08102931
222	0xbd0f74dd	-0.03502356
223	0x3dc639a0	0.0967896
224	0x3d068362	0.03284014
225	0x3d852b9d	0.06502459
226	0x3d46e952	0.048562355
227	0x3dae749b	0.085183345
228	0x3ddd0b49	0.10793168
229	0xbe1bfe1c	-0.15233654
230	0xbe0d848c	-0.13820094
231	0x3d5b0b28	0.053477436
232	0x3d5be92f	0.053689178
233	0xbd14d73e	-0.036338083
234	0xbe190c79	-0.14946164
235	0x3da20aa3	0.07912185
236	0x3c48c25e	0.012253372
237	0x3cc786fd	0.02435636
238	0x3df6a135	0.120424666
239	0xbd7b8b43	-0.061412107
240	0xbdda85fc	-0.10670087
241	0xbcc226f3	-0.023700213
242	0xbc156ff6	-0.009120932
243	0xbd57d7b3	-0.05269594
244	0xbe526395	-0.205458
245	0x3d969cd0	0.07354128
246	0xbd6563e7	-0.056003477
247	0xbe12c1ad	-0.14331694
248	0xbb741289	-0.0037242493
249	0xbd3809a2	-0.04493106
250	0xbaaf3e89	-0.0013370077
251	0x3d2958e0	0.041344523
252	0x3d9f2094	0.07769886
253	0x3c30b575	0.01078545
254	0x3e00718f	0.12543319
255	0x3c0a8f27	0.008456982

lstm.bias_ih_l1 f4 [256]
0	0x3d6448df	0.055733558
1	0xbddd1c6c	-0.10796437
2	0xbdd50de6	-0.104030415
3	0x3dc0f05e	0.094208464
4	0xbb38f3ec	-0.002822156
5	0xbd51dcb3	-0.051235866
6	0xbb01b11f	-0.001978941
7	0x3e18f6b8	0.14937866
8	0xbdfc01f4	-0.1230506
9	0xbd5151b0	-0.051103294
10	0xbb7f1075	-0.0038919721
11	0x3dea5c4b	0.11443385
12	0xbcaa30fc	-0.02077531
13	0xbde12a64	-0.109944135
14	0x3d3bc347	0.045840528
15	0xbbb02f32	-0.00537672
16	0xbd92c915	-0.071672596
17	0xbe3b08dc	-0.18265098
18	0x3de2ee69	0.110806294
19	0x3d9076ee	0.07053934
20	0x3cf10fd4	0.029426493
21	0x3d23e053	0.040008854
22	0xbddcc747	-0.10780197
23	0x3d7abc1c	0.06121455
24	0xbdb9d2eb	-0.090734325
25	0x3d82ef95	0.06393353
26	0x3c312124	0.010811124
27	0x3df290b0	0.11844003
28	0x3c97564b	0.018473765
29	0x3c022239	0.00794273
30	0xbddb7e1e	-0.10717414
31	0x3d4bf918	0.0497981
32	0xbd95b871	-0.0731057
33	0x3c6a2132	0.014290141
34	0x3e20adec	0.15691346
35	0x3e06b9aa	0.13156763
36	0x3dc21215	0.09476105
37	0x3da77c34	0.08177987
38	0xbd282388	-0.04104951
39	0x3c2afa97	0.010435722
40	0x3d785b31	0.060633842
41	0xbe411d17	-0.18858753
42	0x3da91f4a	0.08257921
43	0xbd9bd51f	-0.07609009
44	0xbc3dc28f	-0.011582031
45	0x3d92fa88	0.07176691
46	0xbe56f328	-0.20991194
47	0xbe164cba	-0.14677706
48	0xbd2ad397	-0.041705694
49	0xbcce8a4a	-0.025212426
50	0xbd903713	-0.070417546
51	0x3ad662cc	0.0016356348
52	0xbd1ee67e	-0.038794033
53	0xbe0481fb	-0.12940209
54	0x3de23064	0.11044386
55	0x3dc9b593	0.09849086
56	0x3dc3eff4	0.09567252
57	0xbe034a7a	-0.1282138
58	0xbe6957b5	-0.22787364
59	0x3da30040	0.07959032
60	0x3d3d4532	0.046208568
61	0xbd33b70c	-0.04387574
62	0x3d94c344	0.072638065
63	0xbd6f6c5f	-0.05845296
64	0xbe4df7af	-0.20114015
65	0xbdf0fe61	-0.11767269
66	0xbe5c4298	-0.21509778
67	0x3d418973	0.047250222
68	0xbe45347a	-0.192583
69	0xb99edea2	-0.00030301983
70	0xbd596ee3	-0.053084265
71	0xbde16f21	-0.11007524
72	0x3c798796	0.01523008
73	0xbd062295	-0.032747824
74	0xbe5b0ec5	-0.21392353
75	0xbd9f47e3	-0.07777383
76	0xbe10c168	-0.14136279
77	0xbdcf2150	-0.10113776
78	0x3da294af	0.079385154
79	0xbda38257	-0.07983845
80	0x3bfc20b0	0.0076943263
81	0x3cd95bbf	0.026533006
82	0xbdf47930	-0.11937177
83	0xbc2cd566	-0.010548925
84	0xbdb3d92b	-0.08781656
85	0x3d549ba6	0.05190625
86	0xbd37bf1f	-0.04486
87	0xbd26ad39	-0.04069254
88	0xbd840ab5	-0.06447355
89	0x3b4ead4f	0.0031536405
90	0x3d684185	0.05670311
91	0x3d4fa3d8	0.050693363
92	0xbd43cc01	-0.047801975
93	0x3d4035d8	0.04692635
94	0x3d08a0dc	0.033356532
95	0xbd4ae946	-0.049538873
96	0x3dbb0585	0.09131912
97	0xbdb6d936	-0.089281484
98	0xbdb99b4d	-0.090628244
99	0xbcbcb3e4	-0.023034997
100	0x3c77f38a	0.015133748
101	0x3ba11118	0.004915368
102	0xbdfbc328	-0.122930825
103	0x3cbd44ea	0.02310415
104	0x3db1b18e	0.08676444
105	0xbd32446b	-0.04352228
106	0xbc73208c	-0.014839303
107	0xbdc39e11	-0.09551633
108	0x3d77b7fb	0.06047819
109	0x3d7207b3	0.059089374
110	0xbd8d21cc	-0.06891212
111	0xbcae9afb	-0.021314135
112	0xbdd3d7ac	-0.103438705
113	0x3c3f05d6	0.011659106
114	0x3dcd6120	0.10028291
115	0xbdc6e2e1	-0.097112425
116	0x3c9a4734	0.01883278
117	0xbd8caf82	-0.06869413
118	0x3d2abdc3	0.041684877
119	0xbdb2a37a	-0.08722587
120	0xbd331448	-0.043720514
121	0xbdd07649	-0.10178811
122	0xbe06747b	-0.13130371
123	0x3d4252a2	0.047442086
124	0x3cd10c60	0.025518596
125	0xbd468225	-0.04846396
126	0x3d89e9b6	0.0673403
127	0xbe56563e	-0.20931336
128	0x38bbb708	8.950947e-05
129	0xbd322554	-0.04349263
130	0x3d05bc65	0.03265037
131	0xbdd7cc30	-0.105369925
132	0x3d212219	0.03933916
133	0x3dc00d2a	0.09377511
134	0xbda2e81c	-0.079544276
135	0x3cb45cf0	0.022016972
136	0xbca87d2a	-0.020567495
137	0x3cdb9114	0.026802577
138	0x3d5e88ec	0.054329798
139	0xbd781740	-0.060569048
140	0xbda99ad6	-0.08281486
141	0xbc60e004	-0.0137252845
142	0x3dd3279f	0.103102915
143	0xbcc64859	-0.02420442
144	0x3a51803b	0.0007991825
145	0xbc9df73c	-0.01928293
146	0x3d21920e	0.03944593
147	0x3e3048ac	0.17215222
148	0xbe10a613	-0.14125852
149	0xbde73900	-0.11290169
150	0x3d9dfdd6	0.07714431
151	0xbdffe856	-0.124954864
152	0x3df909a1	0.1216004
153	0xbd4e08eb	-0.050301474
154	0xbdc46bfc	-0.09590909
155	0x3c9794c2	0.01850355
156	0xbde3b5ae	-0.11118637
157	0x3d8b33fe	0.06797026
158	0xbe2486a9	-0.16066994
159	0xbc7fa24d	-0.01560266
160	0xbd8eb540	-0.069681644
161	0x3c387db7	0.0112604415
162	0xbd7681e4	-0.060182467
163	0xbd8317b4	-0.064010054
164	0x39f2f462	0.00046339916
165	0x3ca666c0	0.020312667
166	0xbcb483ff	-0.022035597
167	0x3dbc4655	0.09193102
168	0xbc2b50ba	-0.010456258
169	0x3d9ef628	0.07761794
170	0x3d63948d	0.05556159
171	0xbd40ea3c	-0.047098383
172	0xbd63c0cb	-0.055603784
173	0x3c97e777	0.018542988
174	0x3be0671a	0.006848228
175	0x3d462ecd	0.048384476
176	0x3dc04a2d	0.09389148
177	0xbd3d93e8	-0.046283633
178	0xbdfa5894	-0.12223926
179	0x3de2b238	0.11069149
180	0xbdb0968f	-0.08622467
181	0xbd951541	-0.072794445
182	0xbe076650	-0.13222623
183	0x3dd888fa	0.10573001
184	0xbda352ff	-0.079748146
185	0x3c940b56	0.018071812
186	0x3db428e9	0.087968655
187	0xbdffa9a9	-0.12483532
188	0xbe166897	-0.14688335
189	0xbd6efce1	-0.058346633
190	0xbe0cd17e	-0.1375179
191	0xbbeaa52b	-0.007160803
192	0x3d70e009	0.058807407
193	0x3d9510af	0.07278573
194	0x3c68e5a5	0.014214908
195	0xbe1ea0d3	-0.15491037
196	0xbc144e91	-0.009051935
197	0x3c711467	0.014714337
198	0xbdaff6bf	-0.08591985
199	0x3e1ece4c	0.15508384
200	0x3db97b32	0.09056701
201	0x3bedca0a	0.007256751
202	0x3c586925	0.013208662
203	0x3d3fb2de	0.04680144
204	0xbd6eab25	-0.058268685
205	0x3dc9d324	0.09854725
206	0xbd143a8c	-0.036188647
207	0xbd0f1d91	-0.034940306
208	0x3aa7b291	0.0012794306
209	0x3c4a7243	0.012356344
210	0xbd79917f	-0.06092977
211	0xba79fe24	-0.0009536466
212	0x3d01fc46	0.031734727
213	0x3d32489d	0.04352628
214	0xbdff731a	-0.12473126
215	0x3d5e99c7	0.054345872
216	0xbdaa23da	-0.083076194
217	0xbc12c9cd	-0.008959246
218	0x3de0cb54	0.10976282
219	0xbd9ac316	-0.07556741
220	0xbcfa6182	-0.030564073
221	0xbd917791	-0.071028836
222	0x3d303a76	0.043024503
223	0xbd8c8de8	-0.06863004
224	0x3dc4f071	0.09616173
225	0xbcf35c82	-0.029707197
226	0x3d3b8770	0.04578346
227	0x3d5f49a5	0.054513592
228	0xbe0bd201	-0.13654329
229	0xbccfec8a	-0.025381345
230	0xbda0a910	-0.07844746
231	0x3dcf5ae6	0.101247594
232	0x3d8eada1	0.06966711
233	0xbd28f9e3	-0.041253936
234	0x3dc586db	0.09644862
235	0xbc7acd0e	-0.015307678
236	0xbdcd03ee	-0.10010515
237	0x3d6429de	0.05570399
238	0xbdc929e4	-0.09822443
239	0x3ca24c11	0.019811662
240	0xbd44f484	-0.04808475
241	0xbe12a6a6	-0.14321384
242	0x3d7d06f6	0.061774217
243	0x3d758434	0.05994053
244	0xbc84a714	-0.01619295
245	0x3bae5030	0.0053196177
246	0x3dbf23d5	0.09333006
247	0x3d854f42	0.06509258
248	0x3c8b94d7	0.017038746
249	0xbdb9f1c7	-0.090793185
250	0xbdb94200	-0.090457916
251	0x3e02c843	0.12771706
252	0x3d38664f	0.045019444
253	0xbdd364bf	-0.1032195
254	0x3c5d5c59	0.013510787
255	0xbe0a9660	-0.13533926
