SoilTest/models/lstm_model_backup.pth (torch, 261346 bytes, 10 tensors)

lstm.weight_ih_l0 f4 [256, 13]
0	0xbc72d54c	-0.014821362
1	0x3b8ff4ad	0.0043931813
2	0x3e8605e3	0.26176366
3	0x3c64c451	0.013962821
4	0xbe6a69e9	-0.22891964
5	0x3e0ade4e	0.13561365
6	0xbe08c555	-0.13356526
7	0x3e1b4257	0.15162025
8	0xbd20269b	-0.039099317
9	0xbe1bb15a	-0.15204373
10	0x3dc6e926	0.09712438
11	0xbefc3d03	-0.49265298
12	0x3d47633b	0.048678618
13	0x3d8378bc	0.06419513
14	0x3bb4ce0f	0.005517728
15	0xbe8b81d0	-0.27247477
16	0xbd9ab59e	-0.07554172
17	0x3ee5a4c7	0.44852278
18	0xbe88d3f5	-0.2672421
19	0x3e96d506	0.294594
20	0xbebbddce	-0.3669266
21	0x3c91fb23	0.017819947
22	0xbe0ffb20	-0.1406064
23	0xbd6be11c	-0.057587728
24	0xbe46e7e2	-0.19424394
25	0xbd906519	-0.07050533
26	0x3db3e3d2	0.08783688
27	0xbd7f1f99	-0.062285993
28	0x3e4cc291	0.19996096
29	0x3e6da192	0.23206165
30	0x3d865076	0.065583155
31	0x3c99578f	0.018718509
32	0xbe27f760	-0.1640296
33	0xbc063dd6	-0.008193454
34	0xbdac0c90	-0.084008336
35	0x3e30b328	0.17255843
36	0x3d1cf722	0.03832162
37	0xbf395250	-0.72391224
38	0xbe3863f6	-0.18006882
39	0xbdace4c5	-0.08442072
40	0xbd21d91e	-0.0395137
41	0x3c4a5f65	0.012351845
42	0xbd5afd97	-0.0534645
43	0xbee61243	-0.44935808
44	0x3d59e596	0.053197466
45	0x3e259491	0.16169955
46	0xbde174d6	-0.11008613
47	0x3d7da98a	0.061929263
48	0x3e345862	0.1761184
49	0x3d46187d	0.048363198
50	0xbf34a9dc	-0.70571685
51	0x3d93f548	0.07224518
52	0x3c844819	0.01614766
53	0x3d86abc3	0.0657573
54	0xbe50b018	-0.20379674
55	0x3dd5fcf3	0.10448637
56	0x3f4b387f	0.7938308
57	0xbddebe97	-0.10876196
58	0x3dc54bcf	0.096336
59	0xbe68c63b	-0.22731869
60	0x3e024b3b	0.1272401
61	0x3ce76ae5	0.028249213
62	0xbd5fa267	-0.05459824
63	0x3f580de0	0.8439617
64	0xbda72918	-0.08162135
65	0xbe6685c2	-0.22511962
66	0xbe064d77	-0.13115488
67	0x3df37a50	0.11888564
68	0xbe8893d9	-0.266753
69	0x3ec5d400	0.38638306
70	0xbeddeb3c	-0.43343532
71	0xbd706b53	-0.058696102
72	0xbe929791	-0.2863126
73	0xbdd003a4	-0.101569444
74	0xbe4e5505	-0.2014962
75	0xbe7672e9	-0.24067272
76	0x3e1d13a8	0.1533953
77	0xbe3d8b3e	-0.18510148
78	0xbaf97097	-0.0019030747
79	0x3b64dbca	0.0034921044
80	0x3e637052	0.22210816
81	0x3de7c979	0.11317725
82	0xbe19019f	-0.14942025
83	0x3d177102	0.036973007
84	0xbd0a917e	-0.03383016
85	0x3de1f41b	0.110328875
86	0x3d55e80e	0.052223258
87	0xbd3cbaea	-0.046076693
88	0xbe08ca9b	-0.13358538
89	0xbf29d329	-0.6633783
90	0x3cc4872d	0.023990238
91	0xbe246be0	-0.16056776
92	0xbea41831	-0.32049707
93	0xbd8ca3a0	-0.068671465
94	0xbe4002f4	-0.18751127
95	0xbc1e4bd0	-0.00966163
96	0xbededfbe	-0.43530077
97	0x3d8370d4	0.06418005
98	0xbee731ea	-0.4515527
99	0xbe0518ee	-0.12997791
100	0xbe96a048	-0.2941916
101	0xbcfb602a	-0.030685503
102	0xbd861cdb	-0.065484725
103	0xbe8af63d	-0.2714099
104	0xbdaa9942	-0.08330013
105	0xbda1d65e	-0.079022154
106	0xbe0fd6d1	-0.1404679
107	0xbcf5895e	-0.029972728
108	0xbc0cd182	-0.008594872
109	0xbe27b54f	-0.16377757
110	0xbd2c725e	-0.042101257
111	0x3c54231f	0.012947827
112	0xbdb861ff	-0.09003066
113	0xbe59d371	-0.21272065
114	0xbdfe29ea	-0.12410338
115	0xbee58e35	-0.44835058
116	0xbe318a41	-0.17337896
117	0x3dcbc4f3	0.099496745
118	0x3d01aff3	0.03166194
119	0xbe0809c0	-0.1328497
120	0xbd715359	-0.058917377
121	0xbf6587c9	-0.89660317
122	0xbde76969	-0.11299402
123	0x3d29e4a0	0.0414778
124	0x3d5e29a0	0.054238915
125	0x3ce77fed	0.028259242
126	0xbd07527a	-0.03303764
127	0xbe0701f7	-0.13184343
128	0xbee0e9c9	-0.43928364
129	0x3d6bc27e	0.05755853
130	0xbe285353	-0.16438036
131	0xbc7d3187	-0.015453703
132	0x3dc6c42b	0.09705385
133	0x3bacbd58	0.005271595
134	0xbeaad87d	-0.33368292
135	0xbd5789ec	-0.052621767
136	0xbd15f251	-0.036608044
137	0xbd5147ce	-0.05109387
138	0x3d2fd201	0.042924885
139	0x3cb9fab6	0.022702556
140	0xbe6fd03d	-0.2341928
141	0xbf41128e	-0.7541894
142	0x3d6eaf42	0.058272608
143	0x3db25eda	0.08709498
144	0x3d484c78	0.04890105
145	0x3e659b05	0.22422417
146	0x3df55593	0.119792126
147	0xbe802e82	-0.25035483
148	0xbe221ed1	-0.15832068
149	0x3e355eb0	0.17711902
150	0xbb0fe215	-0.0021954824
151	0x3ca09233	0.019600963
152	0xbdbaa741	-0.091139324
153	0xbdd9cd10	-0.10634816
154	0xbe9429f2	-0.28938252
155	0xbdc9b45f	-0.09848856
156	0xbc0a8565	-0.008454655
157	0x3dfdacb2	0.12386455
158	0x3e326cbe	0.17424294
159	0x3f0e2138	0.5551944
160	0x3df6dde7	0.12054043
161	0x3e23c8b6	0.15994534
162	0xbe63154e	-0.22176096
163	0x3ea45eba	0.3210352
164	0xbe8c5e4c	-0.27415693
165	0xbd82f182	-0.0639372
166	0xbe584aec	-0.2112233
167	0xbed59fc1	-0.41723445
168	0x3e4a5aa3	0.19761138
169	0xbe020a45	-0.1269923
170	0xbe18b422	-0.14912465
171	0x3d9c6868	0.076371014
172	0xbd96f062	-0.07370068
173	0x3ed4aecc	0.4153961
174	0xbe09572b	-0.13412158
175	0xbba4f5e3	-0.005034195
176	0x3dbd446e	0.092415676
177	0xbda4a6ab	-0.08039602
178	0xbe0a67f7	-0.13516222
179	0xbe25c1df	-0.16187237
180	0xbe189b81	-0.1490307
181	0xbdf4154f	-0.11918127
182	0xbdd30a73	-0.103047274
183	0x3d5eff1c	0.05444251
184	0xbcbdc620	-0.023165762
185	0xbe4517d9	-0.19247378
186	0xbdafabbe	-0.08577679
187	0x3dec189c	0.11528131
188	0xbd6cafa6	-0.0577847
189	0xbcb25924	-0.021771021
190	0xbce261a3	-0.027634447
191	0xbe1a7bff	-0.15086363
192	0xbd88d887	-0.06681924
193	0xbee840da	-0.45361978
194	0x3d972d46	0.07381682
195	0x3d401d7e	0.046903126
196	0x3e7d7ca6	0.24754581
197	0x3e8ded0c	0.27719915
198	0xbdb437f3	-0.08799734
199	0xbd332237	-0.0437338
200	0xbd5986a9	-0.053106938
201	0xbdd12639	-0.102123685
202	0x3c497fda	0.012298549
203	0x3a871335	0.0010305407
204	0x3d5d83c4	0.05408074
205	0x3e3a387b	0.18185608
206	0xbf1b529e	-0.6067294
207	0x3db63562	0.08896901
208	0xbd99bcb4	-0.075066954
209	0xbdefb8d8	-0.11705178
210	0x3eb1cb28	0.34725308
211	0xbd463330	-0.04838866
212	0xbe3a5288	-0.18195546
213	0x3c560f56	0.01306518
214	0x3d0ce0c6	0.03439405
215	0xbd13b036	-0.03605672
216	0xbdbb01e0	-0.09131217
217	0x3d1f789a	0.038933374
218	0xbcb8d92b	-0.022564491
219	0xbf14fd73	-0.5819923
220	0xbd023cb2	-0.031796165
221	0xbd2f9550	-0.042867005
222	0xbda7fe00	-0.082027435
223	0xbecac0f9	-0.3960035
224	0xbca12e6b	-0.019675454
225	0x3ed06c6a	0.40707713
226	0xbe342ef9	-0.17596044
227	0x3d7f4680	0.062323093
228	0xbe2601c0	-0.16211605
229	0xbe0d6265	-0.13807066
230	0x3bb6fedb	0.0055845804
231	0xbc83c014	-0.0160828
232	0x3ed93b65	0.42428127
233	0xbd5b6389	-0.05356172
234	0xbdf85827	-0.12126189
235	0xbe21cecd	-0.15801544
236	0xbdadb310	-0.08481419
237	0xbda2bd46	-0.07946257
238	0xbb9188a4	-0.0044413377
239	0xbe3916b7	-0.18075071
240	0x3e563a7a	0.20920745
241	0xbe9ab92b	-0.30219397
242	0xbca79823	-0.020458287
243	0xbdeec9e5	-0.11659602
244	0xbe0abf5e	-0.13549563
245	0xbd9cb52a	-0.07651742
246	0xbda20f23	-0.07913043
247	0xbd2cf7cd	-0.04222851
248	0xbd6413f4	-0.05568309
249	0xbe1b3368	-0.15156329
250	0xbe0531d5	-0.1300729
251	0x3dcfc18c	0.10144338
252	0x3ca59ed7	0.020217342
253	0xbd52b138	-0.05143854
254	0xbd93d094	-0.072175175
255	0xbd0c9ea4	-0.03433098

lstm.weight_hh_l0 f4 [256, 64]
0	0x3cbbd28b	0.022927543
1	0x3d9fa036	0.0779423
2	0xbdf84eda	-0.12124415
3	0xbe103afa	-0.14084998
4	0xbdf37f0e	-0.11889468
5	0xbe2eb962	-0.17062905
6	0x3dbf5f13	0.09344306
7	0x3dde3de5	0.10851649
8	0x3e4ca813	0.1998599
9	0x3e5387ba	0.20657244
10	0xbea4e6fa	-0.3220747
11	0x3ce8e921	0.028431477
12	0x3dc0cbf9	0.09413905
13	0xbd84c890	-0.06483567
14	0x3dda3b2f	0.106558196
15	0x3de04b90	0.109519124
16	0x3c086890	0.008325711
17	0x3c1a952b	0.0094349785
18	0x3d742e5e	0.05961453
19	0xbd77aeea	-0.060469545
20	0x3b2e9cc2	0.0026643728
21	0xbe496826	-0.19668636
22	0xbe27d344	-0.16389185
23	0x3d952004	0.07281497
24	0x3e15438f	0.14576553
25	0xbde805e1	-0.11329246
26	0x3dc2c74c	0.09510669
27	0xbd17c75f	-0.03705537
28	0x3cdde080	0.027084589
29	0xbcd08004	-0.025451668
30	0xbd43ac0d	-0.047771502
31	0x3df6f456	0.12058322
32	0x3dd7d285	0.105382
33	0x3bab778e	0.005232758
34	0xbdd29434	-0.10282174
35	0x3cebe9e6	0.028798055
36	0xbd24dbca	-0.04024867
37	0xbca758d8	-0.020428106
38	0x3d83e9b5	0.064410605
39	0xbd8001d5	-0.062503494
40	0xbd1ff6eb	-0.03905384
41	0xbe0fe341	-0.14051534
42	0x3df0cc60	0.117577314
43	0xbd30bf3b	-0.04315112
44	0x3e1012f3	0.14069729
45	0xbe441e12	-0.19152096
46	0x3da75b6b	0.081717335
47	0xbd8e6cd5	-0.06954352
48	0xbcdb86a8	-0.026797608
49	0x3db43294	0.087987095
50	0x3d16064f	0.03662711
51	0xbcf1750c	-0.029474758
52	0xbe0ba113	-0.13635664
53	0xbd24eb10	-0.040263236
54	0xbc8ce726	-0.017200064
55	0xbc833824	-0.01601798
56	0xbe0cb425	-0.13740595
57	0xbda6354c	-0.08115634
58	0x3df86090	0.12127793
59	0x3dfc14ed	0.12308679
60	0xbea2699a	-0.31721193
61	0xbdd7a988	-0.105303824
62	0x3e274abc	0.16337103
63	0x3e0e9d6f	0.13927244
64	0xbe8d303e	-0.27575868
65	0x3e824da3	0.25449857
66	0x3e93d035	0.28869787
67	0x3e8baf16	0.27282017
68	0x3e0972df	0.13422726
69	0xbe22b2b3	-0.15888481
70	0x399d38de	0.00029987743
71	0x3e3ec2de	0.18629023
72	0xbe7f34f9	-0.24922551
73	0xbe7c451e	-0.24635741
74	0x3e6ccf9f	0.23126076
75	0x3e53b478	0.20674312
76	0x3be4a98e	0.0069782203
77	0xbcca6432	-0.02470598
78	0xbdc7706f	-0.09738242
79	0xbf06fc96	-0.52729166
80	0x3e2c5368	0.16828692
81	0xbd0ee503	-0.03488637
82	0x3e08c63e	0.13356873
83	0xbabb186a	-0.0014274244
84	0x3c899024	0.016792364
85	0xbd1fcad4	-0.03901179
86	0x3d230cec	0.039807245
87	0x3e9a9d56	0.30198163
88	0x3d3b420c	0.045717284
89	0x3e010c5a	0.12602368
90	0xbd952649	-0.07282693
91	0x3d7d2657	0.06180414
92	0x3daed312	0.08536352
93	0xbd26cc92	-0.040722437
94	0x3d038e2d	0.03211801
95	0x3e08e462	0.13368371
96	0xbe352eca	-0.1769363
97	0xbdd5a21a	-0.10431309
98	0x3e6be4a9	0.23036446
99	0xbe199b92	-0.15000752
100	0x3e126713	0.14297132
101	0x3dad49fe	0.084613785
102	0xbe44f1cc	-0.19232863
103	0xbdb20088	-0.086915076
104	0xbd758364	-0.059939757
105	0x3e248f0b	0.16070192
106	0xbe58e49a	-0.21180955
107	0xbbe0ef39	-0.006864455
108	0xbda2d18a	-0.07950123
109	0x3e36bba6	0.1784502
110	0xbe3223ad	-0.17396422
111	0x3d10625a	0.035250045
112	0x3e425f44	0.18981653
113	0xbe1be310	-0.15223336
114	0xbda77c3e	-0.08177994
115	0x3c45980f	0.012060179
116	0xbce86b09	-0.02837135
117	0x3ceb9220	0.028756201
118	0xbd543a94	-0.051813677
119	0xbbff4f0b	-0.007791405
120	0x3da57d1c	0.08080503
121	0x3e49002a	0.19628969
122	0xbdac6484	-0.08417609
123	0xbddcddfd	-0.107845284
124	0x3d35f658	0.044424385
125	0xbe4a8455	-0.19777043
126	0xbe7fa89b	-0.24966662
127	0xbe3a356f	-0.18184446
128	0x3dcce29b	0.10004159
129	0xbe9c9849	-0.30584934
130	0x3e1609fa	0.14652243
131	0x3e3fcaf5	0.18729766
132	0xbe2e2211	-0.17005183
133	0xbe08cd0d	-0.1335947
134	0x3c97f4e4	0.01854939
135	0xbd638453	-0.055546116
136	0xbd1a74d9	-0.03770909
137	0xbc570067	-0.0131226545
138	0xbebde4dd	-0.3708867
139	0xbdd54ea0	-0.10415387
140	0x3dda37a7	0.10655146
141	0x3d3f9916	0.046776854
142	0x3d7f35c6	0.06230714
143	0x3d78a7e8	0.060707003
144	0xbd4fc70f	-0.050726946
145	0xbdbfc537	-0.093637876
146	0x3cc0cadd	0.023534233
147	0x3d609a7e	0.054834835
148	0xbdc2a7f5	-0.095046915
149	0xbde7485f	-0.112931006
150	0x3e22d9b0	0.15903354
151	0x3c2d81b8	0.010590009
152	0xbd016b2f	-0.03159636
153	0xbdc25db8	-0.09490532
154	0x3e5c4622	0.21511129
155	0x3c18dbe4	0.00932977
156	0xbce58fa5	-0.028022597
157	0xbe27c323	-0.16383033
158	0x3ea40b02	0.32039648
159	0xbda339a6	-0.0796998
160	0x3d3b0293	0.04565675
161	0x3df0e2fa	0.11762042
162	0xbdbf0c3f	-0.09328508
163	0x3d355569	0.044270907
164	0x3de78944	0.11305478
165	0xbebcc074	-0.3686558
166	0x3dd26522	0.10273196
167	0xbc355048	-0.011066504
168	0x3e26cc0e	0.16288778
169	0x3e7c6384	0.24647337
170	0xbe42232b	-0.18958728
171	0x3da4e93b	0.08052298
172	0x3cdde28a	0.027085561
173	0x3e395ad7	0.18101059
174	0x3e0613ef	0.13093542
175	0xbcf93d1b	-0.030424645
176	0x3e10ea16	0.14151797
177	0xbd83c0a7	-0.0643323
178	0xbd4b38b5	-0.049614627
179	0xbd9c82a3	-0.076421045
180	0xbd3626fb	-0.04447077
181	0xbe0f3ac8	-0.13987267
182	0x3c0f2c5b	0.0087386025
183	0x3e05a9c7	0.13053046
184	0xbe309f20	-0.17248201
185	0x3b016728	0.0019745324
186	0x3eacd09b	0.33752903
187	0x3d952066	0.0728157
188	0xbb287d4e	-0.0025709453
189	0x3e0efa76	0.13962731
190	0xbde24af9	-0.11049456
191	0xbe74b352	-0.2389653
192	0x3cd17969	0.025570588
193	0x3e07a41d	0.13246198
194	0x3d7ec6be	0.062201254
195	0x3dfdb3fa	0.123878434
196	0xbd08e3a2	-0.033420213
197	0x3dfde4a3	0.123971246
198	0x3dcc5ca6	0.09978609
199	0x3d9095dc	0.070598334
200	0xbdf41621	-0.11918283
201	0xbdd62380	-0.1045599
202	0x3e42546b	0.18977515
203	0x3d8ce116	0.06878869
204	0xbde5232a	-0.11188348
205	0x3d0b5534	0.034016803
206	0xbdffa3ce	-0.12482415
207	0xbdc97ad7	-0.09837883
208	0xbe116ffa	-0.14202872
209	0x3e010c89	0.12602438
210	0xbcb4c462	-0.022066299
211	0x3d102b73	0.035197686
212	0x3e26bdfa	0.16283408
213	0x3d804e45	0.06264929
214	0xbdf747be	-0.120742306
215	0x3dc0dfab	0.09417661
216	0xbc4e13dc	-0.012577977
217	0x3e2a110e	0.16608068
218	0x3e0ec6fc	0.13943094
219	0x3d6051dc	0.054765567
220	0x3d8c8ff4	0.068633944
221	0xbcf89f90	-0.030349523
222	0x3cd6bfb7	0.026214464
223	0xbbbf385c	-0.005835576
224	0x3d9684d8	0.07349557
225	0xbcdf3c0f	-0.027250318
226	0xbdea54ed	-0.114419796
227	0x3dad25bc	0.08454463
228	0xbd638924	-0.05555071
229	0xbd51b4b2	-0.051197715
230	0xbda84099	-0.08215446
231	0x3bb75d6d	0.005595854
232	0x3d14a7c9	0.036292825
233	0x3da6d30f	0.08145725
234	0xbe0f4f87	-0.13995181
235	0xbe268592	-0.1626189
236	0xbd1dbb81	-0.038508896
237	0xbdb11d7e	-0.08648203
238	0x3d643c2d	0.05572145
239	0xbd8d95db	-0.06913348
240	0x3ca3709f	0.019951163
241	0x3dc367b4	0.09541264
242	0xbd36a058	-0.04458651
243	0xbdfc6dcd	-0.1232563
244	0xbe14d260	-0.14533377
245	0x3c9565a2	0.018236939
246	0xbd687366	-0.056750678
247	0xbe0a7322	-0.13520482
248	0x3bf67a37	0.0075218934
249	0xbc800ab2	-0.0156301
250	0x3e18b1c7	0.14911567
251	0xbe481cfe	-0.1954231
252	0x3d0226f9	0.03177545
253	0xbd128b4e	-0.035777383
254	0x3d2a07cc	0.041511342
255	0x3b90c4a0	0.004417971

lstm.bias_ih_l0 f4 [256]
0	0xbd6e6bb6	-0.05820819
1	0xbdc938d5	-0.09825293
2	0x3d9734de	0.073831305
3	0x3cc533d4	0.024072565
4	0x3c6d7636	0.014493516
5	0xbdac4963	-0.08412435
6	0xbce55dd1	-0.027998837
7	0xbe5871d5	-0.21137173
8	0xbdeb0ac6	-0.11476664
9	0xbcd44577	-0.02591203
10	0xbce0aec2	-0.027427081
11	0xbd043973	-0.03228135
12	0x3db2b809	0.08726508
13	0xbd88c7af	-0.066787116
14	0xbdbbaeec	-0.09164223
15	0x3e215e53	0.15758638
16	0xbd4fba8a	-0.050715007
17	0xbd075cf5	-0.033047635
18	0xbdb26438	-0.087105215
19	0xbd41a321	-0.047274712
20	0x3ccb3181	0.024803879
21	0x3df0bfd2	0.11755337
22	0xbd9fc40a	-0.07801063
23	0x3da5da3e	0.08098267
24	0x3c1eb105	0.009685759
25	0xbe352a05	-0.1769181
26	0xbcbbaf20	-0.022910655
27	0x3d761df9	0.060087178
28	0xbd0b5798	-0.034019083
29	0xbe32558b	-0.17415445
30	0xbe5e0138	-0.21680152
31	0x3dd9111e	0.10598968
32	0xbd7cb2ca	-0.061693944
33	0x3ba94733	0.0051659583
34	0x3b0571df	0.0020362062
35	0xbd044d34	-0.03230019
36	0xbdd8c8a8	-0.10585147
37	0xbdf5c561	-0.12000538
38	0xbdf8c5a9	-0.12147076
39	0xbd2312fd	-0.03981303
40	0xbdde3cf3	-0.10851469
41	0xbdece6d8	-0.115674675
42	0xbca857a4	-0.020549603
43	0xbdf3a60f	-0.118969075
44	0x3d6ed8be	0.05831217
45	0xbc514b0e	-0.012774242
46	0xbd952e21	-0.07284189
47	0xbdd6a5a2	-0.10480811
48	0x3d1ab7b3	0.037772845
49	0xbdfd9b87	-0.1238318
50	0xbd420c4c	-0.04737501
51	0x3d94021f	0.07226967
52	0xbddb9bb0	-0.107230544
53	0x3ce2f8ac	0.027706467
54	0x3ddf5a02	0.109058395
55	0x3d45d316	0.04829701
56	0xbe29fdc7	-0.16600715
57	0x3c9a8405	0.01886178
58	0xbe0f8f2a	-0.14019457
59	0xbde618db	-0.112352096
60	0x3cd30749	0.02576031
61	0xbe4e2978	-0.20133007
62	0xbd521660	-0.05129087
63	0xbc665c1a	-0.014060045
64	0x3e07a6ff	0.13247298
65	0xbd5f7805	-0.05455782
66	0x3b700eaf	0.0036629846
67	0xbd50577e	-0.05086469
68	0x3d608f24	0.05482401
69	0xbd37c3a5	-0.044864316
70	0x3d33d9cf	0.04390889
71	0xbd84c504	-0.0648289
72	0xbe4afd99	-0.19823302
73	0xbe1eb69b	-0.15499346
74	0x3c9d2ff3	0.019187903
75	0xbd22b1e5	-0.039720435
76	0xbde258d6	-0.110521
77	0x3cdbcf2b	0.026832184
78	0x3d81124b	0.06302317
79	0xbe00a246	-0.12561902
80	0x3e2221b9	0.15833177
81	0xba11a1a5	-0.0005555398
82	0xbd448cc2	-0.0479858
83	0x3d5b2e6e	0.053511076
84	0x3c91201f	0.017715512
85	0x3d3ff19d	0.04686128
86	0xbd820d22	-0.06350161
87	0x3d10ce8d	0.035353232
88	0xbe5945fd	-0.21218105
89	0xbd6cee6f	-0.057844575
90	0xbddf314c	-0.108980745
91	0xbe1e3dce	-0.15453264
92	0x3dd9b799	0.106307216
93	0xbb7c3075	-0.003848103
94	0xbcc5659f	-0.024096308
95	0xbd4a24ba	-0.04935143
96	0xbe00570a	-0.12533203
97	0xbe2c197c	-0.16806597
98	0xbc3435d4	-0.010999162
99	0xbe331a27	-0.17490445
100	0x3d4b95f9	0.049703572
101	0x3d947feb	0.07250961
102	0xbd81051e	-0.06299804
103	0x3e078461	0.13234092
104	0xbda0344e	-0.07822476
105	0x3d049419	0.0323678
106	0xbda3a892	-0.079911366
107	0x3e2e60d2	0.17029122
108	0xbda84b54	-0.08217493
109	0xbda646e3	-0.08118989
110	0x3dc8f0a1	0.09811521
111	0xbddc3a7c	-0.107533425
112	0x3df822b9	0.12115998
113	0xbdeaf328	-0.114721596
114	0x3d8bc1a6	0.06824045
115	0x3d43a5b6	0.047765456
116	0x3dba4e8e	0.09097014
117	0xbe00fddb	-0.12596838
118	0x3d2fd7e7	0.04293051
119	0xbdacaa0a	-0.0843087
120	0x3ccf6c76	0.025320273
121	0x3ce354e7	0.027750446
122	0xbccd7eb8	-0.025084838
123	0x3e7e8283	0.24854474
124	0x3d965fb4	0.07342473
125	0x3ddf9c44	0.10918477
126	0x3d8f82d0	0.070073724
127	0xbc351b64	-0.011053894
128	0xbcd864b3	-0.026415205
129	0x3d6de51e	0.05807983
130	0x3d894110	0.06701863
131	0xbd5e057b	-0.054204445
132	0xbd2e73ed	-0.042591024
133	0x3c23b1b7	0.009991101
134	0x3c6f72f1	0.0146148065
135	0x3c15a751	0.00913413
136	0x3d96e654	0.0736815
137	0xbdc0fccb	-0.094232164
138	0xbd953996	-0.07286374
139	0x3d9ac5c1	0.0755725
140	0x3d8cc7a4	0.06874016
141	0x3cf18ed0	0.029487044
142	0x3dc9b4d6	0.09848945
143	0xbcfa8e4f	-0.030585436
144	0xbc96f55a	-0.01842754
145	0xbda6e94c	-0.081499666
146	0xbb976658	-0.0046203546
147	0xbdae9e35	-0.08526269
148	0x3cd9ad76	0.02657197
149	0xbc456e8c	-0.012050282
150	0x3caa72c6	0.020806681
151	0xbce1a259	-0.027543234
152	0x3d1541ca	0.036439694
153	0x3bb66f79	0.005567488
154	0x3dde1ea0	0.10845685
155	0x3cac482d	0.02103051
156	0xbd083834	-0.033256724
157	0xbda67176	-0.0812711
158	0x3cf08485	0.029360065
159	0x3d0c9ed4	0.034331158
160	0xbc9fc212	-0.01950172
161	0x3d9afcd9	0.07567758
162	0xbd753cd9	-0.059872482
163	0x3d444e5d	0.047926296
164	0x3c41b708	0.011823423
165	0xbd4d8d92	-0.05018384
166	0x3d7416ad	0.059591938
167	0xbcee95e4	-0.029124208
168	0x3dc72332	0.0972351
169	0xbdae1463	-0.08499982
170	0xbd1609b2	-0.03663034
171	0x3c1254ba	0.008931333
172	0x3dbba311	0.09161962
173	0x3d09d7bb	0.033653002
174	0xbc39e624	-0.011346374
175	0xbc8a3259	-0.01686971
176	0xbc2be0ae	-0.0104905795
177	0x3cc7c5f7	0.02438639
178	0x3dfc0795	0.12306134
179	0xbdbcf124	-0.092256814
180	0xbd05c5d9	-0.032659385
181	0x3c96eafa	0.018422592
182	0xbdbf2b98	-0.09334487
183	0xbd96cfc4	-0.07363847
184	0x3ca95c23	0.020673817
185	0x3cae8cfe	0.021307465
186	0x3d82a6d0	0.06379473
187	0x3c660fe6	0.014041876
188	0xbc75bfee	-0.014999373
189	0xbc0df96f	-0.008665427
190	0xbd7886a4	-0.06067528
191	0x3cc96649	0.024584906
192	0xbd9e831a	-0.077398494
193	0xbe1a2d8d	-0.15056439
194	0x3e0b05c6	0.13576421
195	0x3d867f80	0.065672874
196	0xbe2bd9b6	-0.16782269
197	0xbc33a63f	-0.010964929
198	0x3c4ee6b8	0.01262825
199	0x3d0b8a3e	0.034067385
200	0xbe10d416	-0.14143404
201	0xbd2bf088	-0.041977435
202	0x3ccfb3bc	0.025354259
203	0xbdc38a37	-0.09547847
204	0x3d190de8	0.037366778
205	0x3d39eee9	0.045393858
206	0xbe17c7ee	-0.14822361
207	0xbd5b38c3	-0.05352093
208	0x3d3a0213	0.045412134
209	0xbd01b0cc	-0.031662747
210	0xbdae6ff0	-0.08517444
211	0x3c88b5dd	0.016688282
212	0x3bd29a5e	0.0064270934
213	0xbdcb424f	-0.09924757
214	0x3d4b1b04	0.04958631
215	0x3d1f5e11	0.038908068
216	0xbd50a1fc	-0.05093573
217	0xbccda1ae	-0.025101509
218	0x3e11c940	0.14236927
219	0xbe05842c	-0.13038701
220	0xbd9986bf	-0.07496404
221	0xbd92fe12	-0.07177366
222	0xbd7cf89d	-0.061760534
223	0x3d444c2f	0.047924217
224	0xbd3047ef	-0.04303735
225	0xbcaab228	-0.020836905
226	0x3de5c77e	0.11219691
227	0xbe4e1a7e	-0.20127293
228	0x3dd254d1	0.10270084
229	0x3c828662	0.01593322
230	0x3da6b160	0.081393
231	0x3e277f01	0.16357042
232	0xbd8c1755	-0.06840388
233	0xbe41dac0	-0.18931103
234	0x3dd49918	0.10380763
235	0x39e7bbb9	0.00044199618
236	0xbdcc0411	-0.09961713
237	0x3c645c37	0.013938001
238	0xbdb9f6c6	-0.090802714
239	0xbc3c7f54	-0.011504967
240	0x3d2dc1d6	0.042421184
241	0xbe05943d	-0.1304483
242	0xbe1b6ac8	-0.15177453
243	0x3da92e52	0.08260788
244	0x3da979c8	0.08275181
245	0xbe13dba0	-0.14439249
246	0x3e13cdc0	0.14433956
247	0xbdcd5cc0	-0.10027456
248	0xbd9d19a1	-0.07670904
249	0x3e1475d5	0.14498074
250	0x3c41798d	0.011808765
251	0xbc2e4c16	-0.0106382575
252	0x3d414a0b	0.047189754
253	0xbd9439e3	-0.072376035
254	0x3d47fbf5	0.04882427
255	0xbcd23d46	-0.025663983

lstm.bias_hh_l0 f4 [256]
0	0x3bf98b68	0.0076154955
1	0xbe0a0bab	-0.13481013
2	0x3cacb03b	0.021080127
3	0xbda4d52f	-0.08048474
4	0xbda4b1d4	-0.080417305
5	0xbe6c868a	-0.23098198
6	0x3ae48fcb	0.0017437873
7	0xbc181f7c	-0.00928485
8	0x3c3608c7	0.011110491
9	0x3ddcbd74	0.10778323
10	0x3dd87d79	0.10570807
11	0xbd8da76f	-0.06916701
12	0xbc9261e2	-0.01786894
13	0x3ce302b7	0.027711255
14	0xbe16fc95	-0.1474479
15	0x3e079d57	0.13243614
16	0xbd9204ea	-0.071298435
17	0xbe42a1b4	-0.19006997
18	0xbd230a26	-0.0398046
19	0xbe079b9e	-0.13242957
20	0xbe07c1aa	-0.1325747
21	0xbd97a688	-0.0740481
22	0x3d055ca7	0.032559063
23	0x3d55353f	0.052052733
24	0xbe470302	-0.19434741
25	0xbcbf713c	-0.023369424
26	0x3df61727	0.12016135
27	0xbd9f0af9	-0.07765765
28	0xbd9b2541	-0.07575465
29	0xbd93e638	-0.07221645
30	0xbe6f983e	-0.2339792
31	0x3d51bfd1	0.05120832
32	0xbdee78a8	-0.11644107
33	0xbddf81fd	-0.10913465
34	0xbbe4f645	-0.0069873654
35	0xbd47cd0f	-0.048779543
36	0x3d939c1e	0.07207511
37	0xbd9b8183	-0.07593062
38	0x3d773d23	0.06036104
39	0x3e16dd91	0.14732958
40	0x3d4b5ccf	0.049649056
41	0xbc94def9	-0.018172728
42	0x3e000af4	0.12504178
43	0xbe26e640	-0.16298771
44	0xbdd431fa	-0.10361095
45	0x3ccd3add	0.025052482
46	0x3d5dc8c3	0.05414654
47	0xbe0f3994	-0.13986808
48	0xbbb00ea7	-0.0053728404
49	0xbda6d253	-0.08145585
50	0x3aca4a52	0.0015433526
51	0xbdc040c7	-0.09387355
52	0xbaa27319	-0.0012393921
53	0x3d1952c2	0.03743244
54	0x3de7ec92	0.11324419
55	0x3bd62707	0.006535414
56	0xbc91a696	-0.01777963
57	0xbd29dffc	-0.041473374
58	0xbe034431	-0.12818982
59	0xbd5e9b46	-0.0543473
60	0x3e3916e9	0.18075146
61	0xbe5a2d54	-0.21306354
62	0xbbb9dddf	-0.005672201
63	0xbd758bb1	-0.059947673
64	0x3da7548a	0.081704214
65	0xbdcf27a5	-0.101149835
66	0xbdd70f21	-0.105009325
67	0xbd6bf102	-0.05760289
68	0xbcf232dc	-0.029565267
69	0xbd1cc2d7	-0.03827175
70	0xbd56b127	-0.05241504
71	0x3d78967a	0.06069038
72	0x3d1bf2f5	0.0380735
73	0xbd885a53	-0.06657853
74	0x3e3a63b6	0.18202099
75	0x3d0b9257	0.034075107
76	0xbd3b6536	-0.04575082
77	0xbd5bbf6c	-0.05364935
78	0xbde431da	-0.11142321
79	0xbd8dd377	-0.06925099
80	0x3e06a3d1	0.13148428
81	0xbe0c77b9	-0.13717546
82	0xbda64cce	-0.08120118
83	0xbd8fb8d7	-0.07017677
84	0x3bbbe68b	0.00573427
85	0xbd8ea032	-0.069641486
86	0xbb825ae2	-0.003978119
87	0x3d50d557	0.050984707
88	0xbe1c2a3c	-0.15250486
89	0xbe2d62ad	-0.16932173
90	0xbd9d9c4a	-0.076958254
91	0xbd7a507d	-0.061111916
92	0x3d221a21	0.0395757
93	0xbdbd7149	-0.09250123
94	0xbd91c375	-0.071173586
95	0xbd2607d6	-0.040534817
96	0xbd1db4e8	-0.038502604
97	0xbca7e060	-0.020492733
98	0xbd9d2d94	-0.07674709
99	0x3ccbc374	0.024873473
100	0x3d0e7210	0.034776747
101	0x3bb25d22	0.005443231
102	0xbc9392f3	-0.018014407
103	0x3e08fa3b	0.13376705
104	0x3d802aed	0.062581874
105	0xbd232e31	-0.039838973
106	0xbdc17838	-0.09446758
107	0x3ea0fd9c	0.3144349
108	0x3ca698b6	0.02033649
109	0xbd3bc093	-0.04583795
110	0xbd0fb6ee	-0.035086565
111	0xbe221469	-0.15828098
112	0x3cbd3533	0.023096656
113	0xbdf70f2a	-0.12063439
114	0xbd90b722	-0.0706618
115	0x3ca0be31	0.01962194
116	0xbc81d5cf	-0.015849022
117	0x3cf261a6	0.029587578
118	0x3de62801	0.11238099
119	0xbd4c2941	-0.04984403
120	0xbda3a9c2	-0.07991363
121	0x3d53fbd0	0.05175382
122	0x3c8d8308	0.017274395
123	0x3e1da93d	0.1539659
124	0x3e591574	0.2119959
125	0x3def21e1	0.11676384
126	0xbb38c695	-0.0028194536
127	0xbdf13fb8	-0.117797315
128	0x3dc131bf	0.094333164
129	0xbd9a7192	-0.07541193
130	0x3cfe88ea	0.031071145
131	0x3de6fc29	0.112785645
132	0xbe0d809c	-0.13818592
133	0xbdc728d1	-0.09724582
134	0xbccdee44	-0.025138028
135	0x3bf3981f	0.0074339057
136	0xbd7c229c	-0.061556444
137	0xbcfacd93	-0.030615604
138	0xbc2adcbf	-0.0104286065
139	0xbde87c9f	-0.113518946
140	0x3c29aeb5	0.010356595
141	0x3c891078	0.016731486
142	0xbd857f26	-0.06518392
143	0xbdf1cee4	-0.118070394
144	0x3df69a20	0.12041116
145	0xbd746549	-0.059666906
146	0x3d24cfb8	0.04023716
147	0xbdc747cd	-0.09730492
148	0xbdbfa61a	-0.09357853
149	0xbcbe899f	-0.023258982
150	0x3d36d307	0.044634845
151	0x3d88fd51	0.06688941
152	0x3ba40353	0.005005279
153	0x396cbdd4	0.0002257743
154	0x3dc59cec	0.09649071
155	0xbd66cdcf	-0.056348618
156	0xbdae8df0	-0.08523166
157	0x3db8898c	0.0901061
158	0xbcd6ef20	-0.02623707
159	0xbd312b03	-0.04325391
160	0xbdc47cf0	-0.095941424
161	0xbd14e73e	-0.036353342
162	0xbcc2ba41	-0.023770453
163	0xbd097627	-0.033559944
164	0xbda4cd2c	-0.08046946
165	0x3cf3ca14	0.029759444
166	0xbca34347	-0.019929541
167	0xbda8b3ce	-0.0823742
168	0xbc20284b	-0.009775232
169	0x3b87bbd6	0.004142265
170	0xbcf6be69	-0.030120092
171	0x3c071960	0.008245796
172	0x3de44185	0.11145309
173	0x3d882baf	0.06648957
174	0x3ba32bee	0.004979602
175	0x3d857e7e	0.06518267
176	0x3de11c9f	0.10991787
177	0xbdca24b1	-0.098702796
178	0x3e0c9ce3	0.13731723
179	0x3da6b52c	0.081400245
180	0x3dfd03bb	0.12354227
181	0xbd21abda	-0.03947053
182	0xbd2bad3d	-0.04191326
183	0xbd27417a	-0.040833928
184	0xbc352698	-0.011056565
185	0x3d1fca33	0.03901119
186	0xbdb97e7f	-0.0905733
187	0x3cb74c01	0.022375109
188	0x3e0eb9ee	0.13938114
189	0x3c280557	0.010255179
190	0x3cb107c1	0.021610143
191	0xbde594d7	-0.112100296
192	0xbd90755c	-0.070536345
193	0xbd282707	-0.041052844
194	0x3b9b2ba0	0.004735425
195	0xbd22be1f	-0.039732095
196	0xbdc0830e	-0.09399997
197	0xbde56163	-0.11200216
198	0xbdb3246f	-0.087471835
199	0xbd81cfd9	-0.06338472
200	0xbd998d19	-0.07497615
201	0xbd702b77	-0.0586352
202	0x3e3db763	0.18526988
203	0x3d466e13	0.04844482
204	0xbd514778	-0.05109355
205	0xbca5e3e1	-0.020250263
206	0xbdc3b6f2	-0.095563784
207	0x3e0c0534	0.1367386
208	0x3d5ac90b	0.053414386
209	0x3cbb65a8	0.022875622
210	0x3cbc965a	0.023020912
211	0xbd99af10	-0.07504094
212	0xbd1bd75d	-0.038047183
213	0xbdc20f51	-0.094755776
214	0xbc294ab2	-0.01033275
215	0x3df6d6f4	0.12052718
216	0xbdc311af	-0.09524857
217	0xbdf68cee	-0.12038599
218	0xbd1791f0	-0.03700441
219	0x3d0aeefa	0.033919312
220	0x3d2a0e65	0.041517634
221	0xbe709c59	-0.23497142
222	0xbe5e36f7	-0.21700655
223	0xbe08f49d	-0.13374563
224	0xbe03017a	-0.12793532
225	0x3bde4050	0.006782569
226	0x3df7040a	0.12061317
227	0xbe694266	-0.22779235
228	0x3d00fdf4	0.03149219
229	0x3db3c8d0	0.08778536
230	0xbc9495aa	-0.018137772
231	0x3de62682	0.112378135
232	0x3d417bf2	0.047237344
233	0xbd06c978	-0.03290698
234	0x3de98a12	0.11403288
235	0x3b7bfd8f	0.0038450693
236	0xbcdad162	-0.02671117
237	0xbc359ea9	-0.011085191
238	0x3e04ba1b	0.12961619
239	0xbd2520a9	-0.04031435
240	0x3d99db2c	0.07512507
241	0x3cf45f64	0.029830642
242	0xbe01c904	-0.12674338
243	0x3d1a6f9c	0.037704095
244	0x3d8f2258	0.069889724
245	0xbda1f63d	-0.07908294
246	0x3e2bdf28	0.16784346
247	0xbbf58e86	-0.0074937968
248	0xbd56c756	-0.052436195
249	0x3e16ee39	0.14739312
250	0xbe1b9646	-0.15194044
251	0xbdfdef12	-0.12399115
252	0x3dfb43d9	0.122688
253	0xbc3a0128	-0.011352815
254	0xbdcc7b05	-0.099844016
255	0xbdc07682	-0.093976036

lstm.weight_ih_l1 f4 [256, 64]
0	0xbd8783a8	-0.06616908
1	0x3e3f4e39	0.18682183
2	0x3dcd0167	0.10010033
3	0x3da9b59a	0.08286591
4	0xbd74ac51	-0.059734646
5	0xbd910a90	-0.07082093
6	0xbc8d4442	-0.017244462
7	0x3e4dcddd	0.20098062
8	0xbd1e05fe	-0.038579933
9	0x3c0b7a56	0.008513054
10	0x3d7192d6	0.058977924
11	0xba976653	-0.0011550881
12	0x3e0bb569	0.13643421
13	0xbdafccd9	-0.085839935
14	0x3e173771	0.14767243
15	0x3c314238	0.01081901
16	0xbdb218a5	-0.08696107
17	0x3dc603da	0.096687034
18	0x3e0f9ccd	0.14024659
19	0x3ce25b71	0.027631493
20	0x3c5f356f	0.013623579
21	0x3d994caf	0.07485329
22	0xbcfa9a32	-0.030591104
23	0xbd3a702a	-0.045517124
24	0xbdbd160a	-0.09232719
25	0xbd92af53	-0.07162347
26	0x3e0b2c63	0.13591151
27	0xbdfe9e1b	-0.124325
28	0x3e788820	0.24270678
29	0x3c932d3f	0.017965911
30	0xbdaf6d6c	-0.085657924
31	0xbe0c0575	-0.13673957
32	0x3e010389	0.12599005
33	0x3d2092f8	0.03920266
34	0x3e43988a	0.19101158
35	0x3e392524	0.18080574
36	0x3ded9f86	0.11602692
37	0xbe99700d	-0.299683
38	0xbe1ee4d3	-0.15516977
39	0x3d2d40c5	0.042298097
40	0xbe2ad335	-0.16682132
41	0x3e287003	0.16448979
42	0xbe858475	-0.2607762
43	0xbd882ff3	-0.066497706
44	0xbe52b454	-0.20576602
45	0x3d2e9c13	0.042629313
46	0xbe32f081	-0.17474557
47	0xbd4d42c3	-0.050112497
48	0x3df86b7c	0.12129876
49	0x3d9c61b2	0.076358214
50	0x3e654273	0.2238863
51	0xbe676811	-0.22598292
52	0xbc8d7bc9	-0.01727094
53	0x3daded24	0.084924966
54	0xbcfcbf8c	-0.030853055
55	0xbd17dea7	-0.037077572
56	0x3e1e6812	0.15469387
57	0x3d8e99aa	0.06962903
58	0x3ccf6e02	0.02532101
59	0xbe301d6c	-0.17198724
60	0x3de6bbe4	0.11266306
61	0x3d97661d	0.073925234
62	0x3e59d9cb	0.21274488
63	0x3c6b46d7	0.014360151
64	0xbd484441	-0.048893217
65	0xbcc6de37	-0.024275882
66	0x3d18a4e0	0.037266612
67	0x3ca04934	0.019566156
68	0xbdf9d9ac	-0.12199721
69	0xbcebbc7d	-0.028776402
70	0xbdad699b	-0.08467408
71	0xbdac8021	-0.08422876
72	0xbd25fede	-0.040526263
73	0x3df2805c	0.11840889
74	0xbe413a00	-0.18869781
75	0x3c2aaf88	0.0104178265
76	0x3e096ade	0.13419673
77	0x3da68923	0.081316255
78	0x3d9caefa	0.07650562
79	0x3d404e55	0.046949703
80	0xbca48e1d	-0.020087296
81	0xbd585e42	-0.052824266
82	0x3d040b1b	0.032237154
83	0xbd205307	-0.03914168
84	0xbe1aa2c2	-0.1510115
85	0xbe36964f	-0.17830776
86	0x3d9e91f3	0.07742681
87	0xbdd265a9	-0.102732964
88	0xbd705cb6	-0.058682166
89	0xbd8e5e31	-0.06951559
90	0x3de07bc3	0.10961106
91	0xbda7eb5c	-0.08199188
92	0xbe689ae7	-0.2271534
93	0x3d7cd195	0.06172331
94	0x3e23a9e2	0.15982774
95	0xbdf7a7bc	-0.1209254
96	0xbdde11a5	-0.10843209
97	0x3d2b45f1	0.04181475
98	0xbd990ad6	-0.0747277
99	0x3d319050	0.043350518
100	0xbd9b899f	-0.075946085
101	0xbe07211a	-0.13196221
102	0xbd1f5b56	-0.038905464
103	0x3d997ea4	0.07494858
104	0xbc64ebee	-0.013972266
105	0xbd92e337	-0.07172244
106	0xbd8d5394	-0.06900707
107	0x3d2bd48e	0.041950755
108	0x3dd8a024	0.105774194
109	0xbcfb84c1	-0.03070295
110	0x3d8ec5c6	0.06971316
111	0xbc5e6827	-0.013574637
112	0x3c16b073	0.009197342
113	0xbe3a455e	-0.18190524
114	0x3d526c5a	0.051372863
115	0xbd2b94ea	-0.041890062
116	0x3cc2e967	0.023792936
117	0x3dc8a1a4	0.097964555
118	0xbe15b92d	-0.1462142
119	0xbd58bece	-0.05291634
120	0xbd931687	-0.07182031
121	0xbd5b9fdd	-0.053619254
122	0x3d8f308e	0.06991683
123	0x3e1e2380	0.1544323
124	0xbdb90668	-0.09034425
125	0x3c9d63a6	0.019212555
126	0xbd992e1f	-0.074795
127	0xbe155277	-0.14582239
128	0xbdba3666	-0.09092407
129	0x3c862b3d	0.01637804
130	0x3d1b782d	0.037956405
131	0x3cbac247	0.022797717
132	0xbb0b604b	-0.0021267112
133	0xbdbf2a18	-0.093342006
134	0x3db88521	0.09009767
135	0xbd9631e1	-0.073337324
136	0x3d37b6ee	0.04485219
137	0x3d5de4c1	0.054173235
138	0xbd9b5848	-0.07585198
139	0xbc9e83f6	-0.019350033
140	0x3d178738	0.03699419
141	0xbd6552dd	-0.055987228
142	0xbc9fea15	-0.019520799
143	0x3e010d6f	0.12602781
144	0xbc877206	-0.016533863
145	0xbddbbd31	-0.10729445
146	0xbccd44ff	-0.025057314
147	0x3ddc49cd	0.10756264
148	0x3cc017db	0.023448875
149	0x3c7b5cb2	0.0153419245
150	0xbc12150c	-0.008916151
151	0xbdb58a38	-0.08864254
152	0x3e1f957d	0.15584369
153	0xbd22cf3c	-0.039748415
154	0xbd9933bc	-0.07480571
155	0xbd73c545	-0.059514303
156	0x3d842715	0.06452767
157	0xbcffba1a	-0.03121667
158	0xbd8cc0d1	-0.06872714
159	0xbe0c1faa	-0.13683954
160	0xbbfe5ef3	-0.0077627837
161	0xbe0ad4d7	-0.13557754
162	0xbdcedae1	-0.101003416
163	0xbd1d1676	-0.0383515
164	0x3e1830ad	0.14862318
165	0x3ba4aed7	0.0050257253
166	0x3d30e23d	0.043184508
167	0xbda5929c	-0.08084604
168	0x3dfadab5	0.12248746
169	0x3dcab29d	0.09897349
170	0xbdd4b944	-0.10386899
171	0xbdd73478	-0.105080545
172	0xbd066804	-0.03281404
173	0x3b2497e9	0.002511496
174	0x3daaf3fe	0.08347319
175	0x3d275345	0.040850896
176	0x3d175544	0.03694655
177	0x3d5d7201	0.0540638
178	0x3c804ba3	0.015661066
179	0xbd9a2d6b	-0.07528194
180	0xbcf8be5c	-0.030364208
181	0xbd818ff5	-0.06326286
182	0xbc9af5d0	-0.01891604
183	0xbca74841	-0.020420196
184	0x3d38ce3c	0.045118555
185	0xbd0b5a41	-0.03402162
186	0x3cff754f	0.031183867
187	0x3da5b0ec	0.08090386
188	0x3d4138d4	0.047173336
189	0xbda65e30	-0.081234336
190	0x3e607d03	0.21922688
191	0x3dbb3996	0.09141843
192	0x3c94323d	0.018090362
193	0xbdb40b36	-0.08791201
194	0xbe1183bc	-0.14210409
195	0xbbb7c35d	-0.005608006
196	0x3ccdfcb4	0.025144912
197	0x3d70fa35	0.058832366
198	0x3dcb34d9	0.09922189
199	0xbdeff474	-0.117165476
200	0x3e3cebc9	0.1844932
201	0x3dda0938	0.106462896
202	0xbcaed3ed	-0.021341288
203	0xbdbcba6b	-0.09215244
204	0x3d0fc0b7	0.035095897
205	0xbca3b871	-0.01998541
206	0xbdad745d	-0.0846946
207	0x3ebb80ee	0.36621803
208	0x3d56dfeb	0.05245964
209	0xbe07b1f9	-0.13251485
210	0xbbb4d297	-0.0055182683
211	0x3d986b73	0.07442369
212	0xbe1d5ce7	-0.1536747
213	0xbd7d7dd2	-0.06188757
214	0xbc303846	-0.010755604
215	0xbdf230f1	-0.11825741
216	0xbb91000f	-0.004425056
217	0xbdaf5483	-0.08561041
218	0xbe1da016	-0.15393099
219	0x3ddf7d74	0.109126
220	0x3da8d114	0.082430035
221	0xbe192072	-0.14953783
222	0x3d9f4ce9	0.07778341
223	0x3d61a483	0.05508853
224	0xbd1db699	-0.038504217
225	0x3d4448c2	0.04792095
226	0xbcb625d9	-0.022234844
227	0xbd9d449e	-0.07679103
228	0x3dbcad50	0.09212744
229	0x3c9ef70f	0.019404916
230	0xbd0117e3	-0.03151692
231	0xbe2c13da	-0.16804448
232	0x3e007d85	0.12547882
233	0x3e402761	0.18765022
234	0x39c4ab40	0.00037511624
235	0xbdf129c5	-0.11775545
236	0x3d5b7409	0.053577457
237	0xbd6ab404	-0.057300583
238	0x3e0e7757	0.13912712
239	0xbdd6c6ee	-0.104871616
240	0x3d8b826d	0.06811986
241	0x3d85d796	0.065352604
242	0x3db61420	0.08890557
243	0x3e29e2ed	0.16590472
244	0x3bffb0d7	0.0078030634
245	0xbe68ca46	-0.22733411
246	0xbc057902	-0.008146526
247	0xbe07ce40	-0.13262272
248	0x3d450c52	0.048107453
249	0x3d558102	0.052124985
250	0x3c15a2c0	0.009133041
251	0x3d6a6da8	0.057233483
252	0xbd6230b8	-0.055222243
253	0x3da4ad89	0.08040912
254	0x3d164a74	0.036692098
255	0xbc897a31	-0.016781898

lstm.weight_hh_l1 f4 [256, 64]
0	0xbdc01fb5	-0.09381048
1	0x3df60c94	0.12014118
2	0xbe48ee6e	-0.19622204
3	0x3df2756d	0.118388034
4	0x3e082a83	0.13297467
5	0x3c970757	0.018436117
6	0xbe0fe8d8	-0.14053667
7	0xbd209f89	-0.039214645
8	0x3df3934c	0.11893329
9	0xbe097e02	-0.13426974
10	0x3dc85f6a	0.09783824
11	0xbcf00980	-0.029301405
12	0xbd388947	-0.045052793
13	0xbb6a92aa	-0.0035792985
14	0xbe33519a	-0.17511597
15	0xbde5e51c	-0.1122534
16	0x3de4c535	0.11170427
17	0xbe06dc41	-0.13169958
18	0x3d3e27e5	0.046424765
19	0x3c023ae6	0.007948613
20	0xbe4a8b4c	-0.197797
21	0xbce386f0	-0.027774304
22	0x3db0157e	0.08597849
23	0xbe55d634	-0.20882493
24	0x3bdf4288	0.006813351
25	0x3d3ba5d1	0.04581243
26	0x3d474c5c	0.048656806
27	0xbe183e11	-0.14867426
28	0x3e4ec014	0.2019046
29	0xbdd5d674	-0.10441294
30	0x3b8f4692	0.0043724263
31	0x3ca303c5	0.019899258
32	0xbb68e3b8	-0.0035536122
33	0x3d83fe92	0.0644504
34	0xbba3e7fc	-0.00500202
35	0xbe0c5060	-0.13702536
36	0xbe2cfe57	-0.16893898
37	0x3d21c22b	0.039491814
38	0xbc84d2e1	-0.016213836
39	0xbde041fd	-0.10950086
40	0xbd24aaf2	-0.04020209
41	0xbd1fb7eb	-0.038993757
42	0xbd9fd4da	-0.0780427
43	0x3e3f82d5	0.18702252
44	0xbe4cf58f	-0.20015548
45	0x3dc44b3a	0.09584661
46	0x3d2407d7	0.04004654
47	0xbe12338a	-0.14277473
48	0x3da73c7e	0.08165835
49	0xbe04f776	-0.12985024
50	0xbd953c0c	-0.07286844
51	0xbe08e4ab	-0.1336848
52	0x3dee32e9	0.11630804
53	0xbd0f68b2	-0.035011955
54	0x3e3a78b6	0.1821011
55	0x3cf0a952	0.029377613
56	0x3e47e84a	0.19522205
57	0x3e339038	0.17535484
58	0xbb095d0b	-0.002096
59	0x3e1ce9fb	0.15323631
60	0x3e4a6ed9	0.19768848
61	0x3daea68a	0.085278586
62	0x3f0a2a78	0.5397105
63	0xbd1021f5	-0.035188634
64	0x3db0c832	0.08631934
65	0x3e04732b	0.12934558
66	0xbd27af41	-0.04093862
67	0xbd96a6f5	-0.07356063
68	0xbd0242a1	-0.031801824
69	0x3dafd4b7	0.08585494
70	0x3ac3950c	0.0014921739
71	0x3e02ff4e	0.12792704
72	0xbe048772	-0.12942293
73	0x3c917784	0.017757185
74	0xbdb44c70	-0.08803642
75	0xbd9da2fc	-0.076971024
76	0xbd80a6f6	-0.06281845
77	0xbd17b047	-0.037033346
78	0x3c9dc179	0.019257294
79	0xbd2c6f38	-0.042098254
80	0xbdbea0af	-0.09307992
81	0xbdbd757c	-0.09250924
82	0x3d770365	0.06030597
83	0xbd346373	-0.044040155
84	0x3e008a7b	0.12552826
85	0x3e8fb1fa	0.28065473
86	0xba857ba6	-0.0010183945
87	0xbe75e9b8	-0.24014938
88	0x3d8a5ff4	0.06756583
89	0x3d3ecb75	0.04658075
90	0xbdf5ee8d	-0.120083906
91	0x3d951158	0.07278699
92	0xbccbda38	-0.024884328
93	0x3d516985	0.051126022
94	0xbdd28da0	-0.10280919
95	0xbc36b1e2	-0.011150809
96	0xbd6bb364	-0.057544127
97	0xbe336703	-0.17519765
98	0x3dcb3c8d	0.099236585
99	0x3d835e13	0.064144276
100	0x3da9da25	0.08293561
101	0xbd2476ba	-0.04015229
102	0xbd32d7ad	-0.043662716
103	0x3cb41031	0.021980377
104	0x3cac2f0b	0.021018526
105	0x3c799f96	0.015235802
106	0xbdd0396c	-0.10167202
107	0x3db6c8cb	0.08925017
108	0xbdb4e224	-0.088321954
109	0xbe09549c	-0.13411182
110	0xbcc2899a	-0.023747254
111	0x3db3c34b	0.087774836
112	0x3dd4728d	0.10373411
113	0xbbb48d23	-0.005509989
114	0xbdd6ff6c	-0.104979366
115	0x3d634515	0.055485804
116	0xbbef4a08	-0.0073025264
117	0x3dc906b7	0.09815734
118	0x3dcf23a5	0.101142205
119	0xbe040e5f	-0.12896107
120	0xbdba8e4b	-0.091091715
121	0xbe4412bf	-0.19147776
122	0xbba82197	-0.0051309573
123	0x3cce132d	0.025155628
124	0xbd71726b	-0.058947008
125	0x3cf8aece	0.03035679
126	0xbde3c87a	-0.11122222
127	0x3d14ab08	0.03629592
128	0xbd307451	-0.043079678
129	0xbd8b52c3	-0.06802895
130	0xbdad9ba9	-0.084769554
131	0x3e30a58d	0.17250653
132	0x3c2e94fe	0.01065564
133	0xbd031016	-0.031997763
134	0x3a27c55a	0.0006399952
135	0x3af9ecd2	0.001906777
136	0xbd48b5cd	-0.049001504
137	0xbd2f1542	-0.042744882
138	0x3e1e6e7e	0.15471837
139	0xbd5f73c8	-0.054553777
140	0xbdf6fc9d	-0.12059901
141	0xbde61e36	-0.11236231
142	0x3d76ef28	0.06028667
143	0xbc9c8925	-0.019108364
144	0x3ce28e2d	0.027655685
145	0xbd048030	-0.03234881
146	0x3d812cfd	0.06307409
147	0x3de24722	0.11048724
148	0xbe1a2620	-0.15053606
149	0xbc8c6f79	-0.017142998
150	0xbc10a11e	-0.008827476
151	0x3d2e5b6b	0.04256765
152	0x3db26d20	0.0871222
153	0x3cc6dc2e	0.024274912
154	0x3c8baab6	0.017049175
155	0xbe12585e	-0.14291522
156	0x3df761c7	0.120791964
157	0x3c90ac66	0.017660331
158	0x3df66931	0.120317824
159	0xbc9242da	-0.017854143
160	0xbd76c7c1	-0.060249094
161	0x3d61ad94	0.055097178
162	0xbd63ba46	-0.055597566
163	0xbd8843b0	-0.06653535
164	0x3d1986af	0.03748196
165	0x3c2ae5f4	0.010430802
166	0xbe295260	-0.1653533
167	0x3dd870c0	0.1056838
168	0xbe0fca47	-0.14042006
169	0x3bcf42c0	0.006325096
170	0xbdd0f891	-0.1020366
171	0xbdd617cd	-0.104537584
172	0xbd971592	-0.07377161
173	0xbc7ce2e9	-0.015434959
174	0x3de8f57c	0.113749474
175	0xbdfab70e	-0.12241946
176	0xbc810c65	-0.01575298
177	0xbc0a9a32	-0.008459615
178	0xbde6910d	-0.11258135
179	0xbe083aee	-0.1330373
180	0xbcbecae0	-0.023290098
181	0xbd567b35	-0.052363593
182	0x3cf5135c	0.029916458
183	0x3e042bc1	0.12907316
184	0xbc88c0fb	-0.016693583
185	0x3df5fcbc	0.12011096
186	0xbd818af3	-0.063253306
187	0x3e11919e	0.14215705
188	0x3e156df5	0.14592727
189	0x3dc24f26	0.094877526
190	0x3e079ea5	0.13244112
191	0xbdcee317	-0.10101908
192	0x3d9df43a	0.07712598
193	0x3c4a6819	0.01235392
194	0xbc728c53	-0.014803964
195	0x3e1f4a50	0.15555692
196	0xbb964546	-0.0045858948
197	0x3b8ee62b	0.0043609343
198	0xbe1a3f78	-0.15063274
199	0xbe1dbeed	-0.15404864
200	0x3d121a40	0.035669565
201	0x3d742e68	0.05961457
202	0x3db5bd57	0.08874004
203	0x3cc63627	0.024195744
204	0x3d04e26c	0.032442495
205	0x3dba75f8	0.09104532
206	0xbdb8236d	-0.08991132
207	0xbda8cf0a	-0.082426146
208	0x3cac69ff	0.021046637
209	0xbdffd4ec	-0.124917835
210	0x3d413b26	0.04717555
211	0x3ce6d4f8	0.028177723
212	0xbe39311a	-0.18085137
213	0xbddb3d99	-0.10705108
214	0xbdee6959	-0.11641187
215	0x3e939229	0.2882245
216	0x3e1abac9	0.15110315
217	0x3dbe4170	0.09289825
218	0x3d4e52ff	0.05037212
219	0xbe679f89	-0.22619452
220	0x3d887aae	0.06664024
221	0x3d6c8444	0.057743326
222	0x3e0fc3c6	0.14039525
223	0xbbcc55f8	-0.006235834
224	0x3dda4987	0.106585555
225	0x3ba2d0b2	0.004968726
226	0x3e1a8536	0.15089878
227	0xbe461c17	-0.19346653
228	0xbde06b02	-0.1095791
229	0x3de6d8cd	0.1127182
230	0xbdc294b4	-0.09501019
231	0x3d4a3aee	0.049372606
232	0xbb2d0d22	-0.0026405533
233	0xbe1c2720	-0.152493
234	0xbcba2a9f	-0.022725401
235	0x3e25e7b0	0.16201663
236	0x3d6dacb4	0.05802603
237	0x3e18a7ea	0.14907804
238	0x3dd4108c	0.103547186
239	0xbcfa7927	-0.030575348
240	0xbd4513a0	-0.04811442
241	0xbd500384	-0.050784603
242	0x3c099d94	0.008399386
243	0xbd666d45	-0.05625655
244	0xbe2245e9	-0.15846981
245	0xbd4d7a35	-0.050165374
246	0x3dd24189	0.10266406
247	0xbd77bf90	-0.060485423
248	0x3da71eed	0.081601955
249	0x3d8d2ce5	0.068933286
250	0x3d1192d4	0.035540417
251	0x3db6dc28	0.0892871
252	0x3d55c5e6	0.052190684
253	0x3d94cb7d	0.07265375
254	0x3d572fb2	0.05253572
255	0xbe08a899	-0.13345565

lstm.bias_ih_l1 f4 [256]
0	0x3cfb3685	0.030665645
1	0xbdcc5e6a	-0.099789456
2	0xbd5347d0	-0.051582158
3	0xbca56a03	-0.020192152
4	0x3d49fffd	0.049316395
5	0x3dc492d5	0.095983185
6	0xbda3dca7	-0.080010705
7	0x3c73bcba	0.014876539
8	0x3d9deac0	0.07710791
9	0x3d9561ae	0.072940215
10	0xbdb8a28c	-0.09015378
11	0xbde71e2c	-0.11285052
12	0xbde868a8	-0.113480866
13	0xbc921b78	-0.017835364
14	0x3d19f465	0.03758659
15	0xbb3db706	-0.0028948202
16	0x3d98e83e	0.07466172
17	0x3d5998da	0.053124286
18	0xbd3ffe4b	-0.046873372
19	0xbd634866	-0.055488966
20	0x3db8a133	0.09015121
21	0x3b9b16ae	0.0047329282
22	0x3c969684	0.018382318
23	0xbe7ce75a	-0.24697629
24	0x3d83291c	0.06404325
25	0x3d08b117	0.03337201
26	0x3db24eef	0.08706462
27	0xbd069824	-0.032859936
28	0x3dde0e27	0.10842543
29	0x3d9a6526	0.07538824
30	0xbcfe5b8e	-0.031049516
31	0xbd2d4390	-0.04230076
32	0xbd2261b8	-0.039643973
33	0xbd9af82b	-0.075668655
34	0xbc9896ce	-0.018626597
35	0x3de3a8ee	0.11116205
36	0xbcabfc57	-0.020994348
37	0xbd22f00e	-0.039779715
38	0xbda64730	-0.08119047
39	0xbe44f13c	-0.19232649
40	0xbc3ed946	-0.011648482
41	0xbd2c9a7b	-0.04213951
42	0x3cacd9a8	0.02109988
43	0xbd1bcc73	-0.038036775
44	0x3d112ee6	0.035445116
45	0xbd8ba021	-0.068176515
46	0x3d7587dc	0.05994402
47	0xbcfc8a81	-0.030827763
48	0xbcb25e45	-0.021773467
49	0x3cf09ac0	0.029370666
50	0x3d15bebb	0.036558848
51	0x3e18f58b	0.14937417
52	0xbd536e6d	-0.051618982
53	0xbdbc326e	-0.09189306
54	0x3cf39dcf	0.029738335
55	0x3db89126	0.0901206
56	0xbdadb585	-0.08481888
57	0x3d20fbdb	0.039302688
58	0x3dd93cd9	0.10607309
59	0xbd8cf289	-0.068821974
60	0xbdf206b1	-0.118176825
61	0xbaebd9ec	-0.0017994023
62	0x3d955a24	0.072925836
63	0xbe0d2178	-0.13782299
64	0x3c8e70c8	0.017387763
65	0xbcbdebf7	-0.023183806
66	0xbe062045	-0.13098247
67	0xbe2bdc87	-0.16783343
68	0xbe5b8db8	-0.2144078
69	0xbe5a9d4d	-0.21349068
70	0xbc7eb866	-0.015546894
71	0x3d43f92d	0.047845054
72	0xbdf22b06	-0.11824612
73	0xbd37b0c1	-0.0448463
74	0xbe0205d1	-0.12697531
75	0xbe671316	-0.22565874
76	0xbe4c3da7	-0.19945394
77	0xbdeba8a6	-0.115067765
78	0x3ddd5553	0.1080729
79	0xbbcdf876	-0.0062857224
80	0xbc22e80a	-0.009943018
81	0xbd3e2176	-0.04641863
82	0xbde2a8b1	-0.110673316
83	0xbde923d2	-0.11383785
84	0xbdb5f373	-0.08884325
85	0xbda066f7	-0.07832139
86	0x3d37a873	0.04483838
87	0xbe2afddf	-0.16698407
88	0xbda4120c	-0.08011255
89	0xbd3f4b5e	-0.046702735
90	0x3d3220d0	0.043488324
91	0x3d4a1bba	0.04934285
92	0x3d5ff4c2	0.05467678
93	0x3ca5809b	0.020202925
94	0x3cd24ca0	0.025671303
95	0x3ada6338	0.001666165
96	0xbded7e70	-0.11596382
97	0xbdecc6ad	-0.11561332
98	0x3d9ae425	0.07563046
99	0xbe315156	-0.17316183
100	0xbdff5276	-0.124669
101	0x3d09e741	0.033667807
102	0xbdd713c3	-0.10501816
103	0xbe32ed5f	-0.17473362
104	0xbd8a4e79	-0.06753249
105	0xbdacdb99	-0.084403224
106	0xbd0361ed	-0.03207581
107	0xbe3a48f1	-0.18191887
108	0xbdd70a26	-0.104999825
109	0x3cee386f	0.029079644
110	0x3c42c4de	0.011887757
111	0x3c9ea835	0.019367317
112	0xbdc80260	-0.09766078
113	0xbcc52d87	-0.02406956
114	0x3d53f65a	0.05174861
115	0xbdfd13c1	-0.123572834
116	0xbc2a15cf	-0.010381176
117	0xbdd08126	-0.10180883
118	0xbd9ac12e	-0.07556377
119	0xbdc3573a	-0.095381215
120	0xbd1f581c	-0.038902387
121	0x3db278d6	0.08714454
122	0x3daec271	0.085331805
123	0xbd6d986c	-0.05800669
124	0x3d1bb68d	0.03801589
125	0x3d79a998	0.060952753
126	0x3e03df25	0.12878092
127	0x3d9e65ac	0.07734236
128	0xbd9aac7c	-0.0755243
129	0xbcbca35c	-0.023027115
130	0xbb43329c	-0.0029784804
131	0xbda659f7	-0.08122628
132	0xbddb1a05	-0.10698322
133	0x3c93640e	0.017992046
134	0x3d194677	0.037420716
135	0xbc4c73ac	-0.01247875
136	0xbd2f6968	-0.042825133
137	0xbe137579	-0.14400281
138	0x3ce5516b	0.027992925
139	0xbc9a4700	-0.018832684
140	0x3cb63454	0.022241749
141	0xbd91512f	-0.07095563
142	0x3e33baa2	0.17551664
143	0x3dde61bd	0.10858486
144	0xbe0ef133	-0.13959198
145	0x3c30142d	0.010746998
146	0xbc70ca43	-0.01469666
147	0xbd5267f8	-0.051368684
148	0x3cf2e150	0.029648453
149	0xbd9334a0	-0.07187772
150	0x3c07fbfd	0.008299825
151	0xbc86d900	-0.016460896
152	0xbcad6024	-0.021164007
153	0x3cccac0a	0.024984378
154	0x3d990dc0	0.07473326
155	0x3ca66686	0.020312559
156	0xbdd1e6b5	-0.10249082
157	0xbe0cf777	-0.13766275
158	0xbde92aa8	-0.11385089
159	0x3e21c4ad	0.15797682
160	0xbdfcb50a	-0.12339218
161	0xbdf56a60	-0.1198318
162	0xbdfb471f	-0.12269425
163	0x3da7eb61	0.08199192
164	0x3e0cdeb6	0.13756832
165	0xbdbf113b	-0.09329458
166	0x3def6b1c	0.11690351
167	0xbde8ea2a	-0.11372788
168	0xbccb4ac9	-0.024815934
169	0x3de175e9	0.11008818
170	0x3e1728c1	0.1476164
171	0xbd50bac4	-0.050959364
172	0x3dbc4976	0.09193699
173	0xbdec1be5	-0.11528758
174	0xbe10a2b4	-0.14124566
175	0x3c1830ff	0.009289025
176	0x3d480695	0.048834402
177	0x3d48a790	0.048987925
178	0x3de763c3	0.11298325
179	0x3dfcd7dc	0.123458594
180	0x3db00977	0.08595555
181	0xbe1c17d6	-0.15243468
182	0xbda3934b	-0.07987078
183	0xbe128de8	-0.14311945
184	0xbd84eed9	-0.06490869
185	0x3da369bf	0.07979154
186	0xbe25e8d2	-0.16202095
187	0xbe20b6bc	-0.15694708
188	0xbe0667a9	-0.1312548
189	0xbdfa1537	-0.12211078
190	0xbda386a9	-0.07984669
191	0x3e1cef17	0.1532558
192	0xbdc3c0ae	-0.09558235
193	0x3d4ebc82	0.050472744
194	0x3d93f2aa	0.07224019
195	0xbd26df32	-0.0407402
196	0x3dafec6e	0.08590017
197	0x3dde74fb	0.10862156
198	0xbe147750	-0.14498639
199	0x3d91cc63	0.07119062
200	0xbe06e6f8	-0.13174045
201	0xbdadc2e4	-0.08484438
202	0xbdea7be5	-0.11449412
203	0xbd84b4be	-0.06479786
204	0xbdd37bba	-0.10326333
205	0xbe34e2bf	-0.17664622
206	0x3b9fe7dd	0.004879935
207	0xbdb6881d	-0.0891268
208	0x3d7cc4d7	0.06171116
209	0xbdbeaf73	-0.09310808
210	0x3da6cb3a	0.08144231
211	0x3dc154da	0.09440012
212	0x3c290775	0.010316719
213	0xbdc9bccc	-0.09850463
214	0xbcafa8bf	-0.02144277
215	0x3cdcdaf3	0.026959872
216	0xbc77c27f	-0.015122055
217	0xbbe1757b	-0.00688046
218	0xbcf7a10d	-0.030228162
219	0x3e46ef18	0.19427145
220	0x3d71274d	0.05887537
221	0xbd335a38	-0.04378721
222	0xbd9c7bae	-0.076407775
223	0x3e108db0	0.1411655
224	0x3d1ab7e1	0.037773017
225	0x3c7559bd	0.014975009
226	0x3cd83e6e	0.026396956
227	0xbd59c78e	-0.053168826
228	0xbbe51c9b	-0.0069919354
229	0xbd47160b	-0.048605006
230	0xbd5efef9	-0.05444238
231	0xbe24d23e	-0.16095826
232	0x3d00389b	0.031303983
233	0x3b87e75a	0.0041474523
234	0x3da811f8	0.08206552
235	0xbdd45505	-0.10367779
236	0xbd2c09f3	-0.042001676
237	0x3d73e464	0.059543982
238	0xbd0cf4b4	-0.034413055
239	0x3d852030	0.0650028
240	0xbd8ed93f	-0.0697503
241	0x3df951fc	0.121738404
242	0x3d0022eb	0.0312833
243	0x3e40ee35	0.18840869
244	0x3c42779f	0.01186934
245	0xbbae6c60	-0.005322978
246	0xbd5c764e	-0.05382376
247	0x3c605b75	0.01369368
248	0xbdc8e057	-0.098084144
249	0xbdc8f187	-0.09811693
250	0x3beb2214	0.0071756933
251	0x3d8ddd3c	0.06926963
252	0xbdfe837d	-0.12427423
253	0xbe1cc37c	-0.15308946
254	0x3daad002	0.083404556
255	0xbdb451c3	-0.08804657
